AC/actor.pth (torch, 5504 bytes, 4 tensors)

net.0.weight f4 [128, 4]
0	0x3e3a1ccc	0.18175048
1	0x3f2fde3c	0.6869848
2	0x3e11230a	0.14173523
3	0xbdefeaba	-0.117146924
4	0xbe9ac30e	-0.3022694
5	0x3d8e7518	0.069559276
6	0xbeeb006c	-0.4589876
7	0xbf2aaff0	-0.6667471
8	0xbeb6be57	-0.35692093
9	0xbe14a15a	-0.14514676
10	0x3e4da4c5	0.20082386
11	0x3dffe2d9	0.1249444
12	0xbeac4f04	-0.33654034
13	0x3eb420f8	0.35181403
14	0xbeec3e36	-0.46141213
15	0xbf0e941d	-0.5569475
16	0x3e351eef	0.17687581
17	0xbed2934b	-0.41128
18	0xbf3b2530	-0.7310362
19	0xbf6364ed	-0.88825876
20	0x3ebd8b45	0.37020317
21	0x3ebe68c0	0.37189293
22	0x3e258652	0.1616452
23	0x3f1c3ed4	0.6103337
24	0xbe13574a	-0.14388767
25	0x3e643e6c	0.22289437
26	0xbdfcc063	-0.12341382
27	0x3e9b2ea8	0.30309033
28	0x3bf2c457	0.0074086594
29	0x3f006d31	0.5016661
30	0x3e6cc01a	0.23120156
31	0x3ef17692	0.47160774
32	0xbdd25b7a	-0.10271354
33	0x3eb16083	0.34643945
34	0x3edc4aec	0.4302591
35	0x3ea7b740	0.32756996
36	0x3e9bb7f9	0.30413797
37	0x3e9bedac	0.30454767
38	0x3ef12fb2	0.471067
39	0x3f01157f	0.50423425
40	0xbdb4a4ab	-0.088204704
41	0xbe8500a6	-0.25977057
42	0x3e509ffd	0.2037353
43	0xbeb49fa0	-0.35278034
44	0xbeb97038	-0.3621843
45	0x3d2c14cd	0.042012025
46	0xbe877123	-0.26453504
47	0xbf30e0e6	-0.6909317
48	0xbef78e2b	-0.48350653
49	0xbee3c683	-0.4448739
50	0xbea05bd2	-0.31320053
51	0xbe732901	-0.2374611
52	0xbdf087fb	-0.11744686
53	0x3d08f43c	0.033436045
54	0x3e1db6e7	0.15401803
55	0x3d8575be	0.06516598
56	0xbda8eeb3	-0.08248653
57	0x3d85141b	0.064979754
58	0xbeb4aec4	-0.35289586
59	0x3dba01bf	0.09082364
60	0xbddb23d9	-0.10700197
61	0x3ea0653e	0.31327242
62	0x3f0f5067	0.5598206
63	0x3f183141	0.59450155
64	0x3e8046d9	0.25054052
65	0xbec870b5	-0.3914849
66	0x3ee678f0	0.45014143
67	0x3da4a611	0.08039487
68	0x3d5bf8b2	0.05370397
69	0x3eb0119d	0.34388438
70	0xbe8fa8d9	-0.28058508
71	0xbe8674f6	-0.2626111
72	0x3c8dab3b	0.017293563
73	0x3db5c34c	0.088751405
74	0xbea55a46	-0.32295436
75	0x3e44c384	0.19215208
76	0x3d9c43b9	0.076301046
77	0x3ed0ec55	0.40805307
78	0x3f8573df	1.0425986
79	0x3f454f97	0.7707457
80	0xbcca42d6	-0.024690073
81	0xbcadd6b0	-0.021220535
82	0xbf113109	-0.56715447
83	0xbf7d5788	-0.9896169
84	0x3e09e56a	0.13466421
85	0xbcb9f80b	-0.022701284
86	0x3d84fd81	0.064936645
87	0xbebab5be	-0.36466783
88	0x3df9f58f	0.1220504
89	0x3e19919b	0.1499695
90	0x3ec9e54d	0.39432755
91	0x3f017346	0.5056652
92	0x3e016463	0.1263595
93	0xbe9e0f40	-0.3087101
94	0xbe82ee38	-0.2557237
95	0xbeaf1ec2	-0.34203154
96	0x3dcb8fc8	0.099395335
97	0xbe8e579b	-0.27801213
98	0x3cf94268	0.030427173
99	0xbe8cbb6c	-0.27486742
100	0x3e993559	0.29923514
101	0x3db52059	0.088440605
102	0xbdecf6a0	-0.115704775
103	0xbea6787b	-0.32513794
104	0xbe8bf87c	-0.27338016
105	0xbe293645	-0.16524608
106	0x3eba8ea8	0.36436963
107	0xbeb74eb7	-0.35802242
108	0xbe6bb8b0	-0.23019671
109	0x3e8284bb	0.2549189
110	0x3d1c8996	0.03821715
111	0xbeac4e7b	-0.33653626
112	0x3df3a3e2	0.118964925
113	0x3e2df095	0.16986306
114	0x3e094c88	0.134081
115	0xbf1c70e7	-0.61109775
116	0x3d819648	0.06327492
117	0x3f0912e7	0.5354447
118	0xbe5794f9	-0.21052922
119	0xbed52c37	-0.41635296
120	0xbd5bda00	-0.053674698
121	0xbee27301	-0.44228366
122	0x3e383a98	0.17991102
123	0x3f3a570d	0.7278908
124	0x3e30dec2	0.17272475
125	0x3e89b4f3	0.26895866
126	0xbed0b48b	-0.40762743
127	0xbf111c47	-0.5668377
128	0xbb9a189a	-0.0047026398
129	0x3ec11c70	0.3771701
130	0x3f4e1f72	0.8051673
131	0x3f2ea1cd	0.6821564
132	0xbddb42ce	-0.10706101
133	0x3e05405e	0.13012835
134	0xbe2c2e4b	-0.16814534
135	0xbf7b0b60	-0.9806423
136	0x3f088da8	0.5334115
137	0xbe7b479c	-0.24539036
138	0xbf526ddf	-0.821989
139	0x3db7a983	0.08967879
140	0xbeb7babc	-0.35884655
141	0xbd618e9b	-0.05506764
142	0xbda4c9b5	-0.08046285
143	0x3c8de16d	0.017319405
144	0xbe50221d	-0.20325513
145	0xbe9692e3	-0.2940894
146	0xbea655cb	-0.3248733
147	0xbed6f5f1	-0.41984513
148	0xbe3a52e9	-0.1819569
149	0x3cea694c	0.028614663
150	0x3e0f49b0	0.13992953
151	0xbdf42748	-0.11921555
152	0x3f3bb8e9	0.73329026
153	0xbe4f411b	-0.2023968
154	0xbedf23ce	-0.43582004
155	0xbd4cd958	-0.050011963
156	0xbddc9913	-0.10771384
157	0xbe822e1f	-0.25425813
158	0x3f0addf2	0.5424491
159	0xbed3b229	-0.41346863
160	0x3d63b646	0.05559375
161	0x3e5ae303	0.2137566
162	0x3e901daf	0.28147647
163	0x3f2c1a62	0.67227757
164	0xbdfa83d7	-0.12232178
165	0xbd108709	-0.03528503
166	0x3ecd81c7	0.40138075
167	0xbe674818	-0.22586095
168	0xbd057088	-0.03257802
169	0x3f05c4fa	0.5225369
170	0x3e0d5ffd	0.13806148
171	0xbe95c1b8	-0.29249358
172	0x3ecd792c	0.4013151
173	0x3eb0e20c	0.3454746
174	0x3f843384	1.0328221
175	0x3ef1c896	0.47223347
176	0xbd4beadb	-0.049784523
177	0xbec0bda0	-0.37644672
178	0x3e08758c	0.1332609
179	0x3f0119d3	0.5043003
180	0x3d1e3804	0.03862764
181	0xbe50f843	-0.20407204
182	0xbebc59f9	-0.36787394
183	0xbdf44f75	-0.11929218
184	0xbd16799c	-0.03673707
185	0xbe66075b	-0.22463743
186	0xbde3ce09	-0.111232825
187	0x3ea4f75f	0.3221998
188	0xbddf823a	-0.109135106
189	0x3de634c6	0.112405345
190	0xbf0df8fd	-0.5545805
191	0x3d1b218d	0.037873793
192	0xbe6bf681	-0.23043253
193	0x3e98232d	0.29714337
194	0x3f6f1e74	0.9340584
195	0x3f37533c	0.7161138
196	0x3e54573b	0.20736401
197	0xbf4319e3	-0.76211375
198	0xbee9fcad	-0.4570059
199	0x3d84fe9a	0.06493874
200	0x3e992e85	0.29918304
201	0xbed2fe05	-0.41209427
202	0x3e70d9fa	0.23520651
203	0x3d680f40	0.05665517
204	0x3de0f9fc	0.10985181
205	0xbe4b348a	-0.19844261
206	0xbe883528	-0.26603055
207	0xbe55e789	-0.20889105
208	0x3d2b49d0	0.04181844
209	0xbe06dd3f	-0.13170336
210	0xbece3ad3	-0.40279254
211	0xbe4667f8	-0.19375598
212	0xbd473764	-0.04863681
213	0x3e8105d8	0.2519977
214	0xbf37d78f	-0.7181329
215	0xbf52ed53	-0.8239338
216	0x3e132497	0.14369427
217	0x3f104eec	0.56370425
218	0x3ef66aa8	0.48128247
219	0x3f16df0f	0.5893411
220	0xbec2a1ac	-0.3801397
221	0x3ec534a0	0.38516712
222	0x3f2e9f35	0.6821168
223	0x3f3d0ce2	0.7384778
224	0xbd81bfb6	-0.06335394
225	0xbe0f6538	-0.14003456
226	0xbe9acb44	-0.30233204
227	0xbf2a4a78	-0.6651988
228	0x3e1a92fd	0.15095134
229	0xbebd4467	-0.3696625
230	0x3db3561a	0.08756657
231	0xbed00c35	-0.40634313
232	0x3e8c8964	0.2744857
233	0xbbede0e7	-0.0072594765
234	0x3f11f506	0.570145
235	0x3ef0dcdc	0.47043502
236	0x3e02dccf	0.12779544
237	0x3d33fd20	0.04394257
238	0xbf6e49ea	-0.93081534
239	0xbf72db57	-0.94865936
240	0xbee6c6e2	-0.4507361
241	0xbd2317be	-0.039817564
242	0x3f19678b	0.5992362
243	0x3efcf63d	0.49406615
244	0xbe71f278	-0.2362765
245	0xbe592d34	-0.2120865
246	0xbdacf86b	-0.084458195
247	0x3f2e08df	0.67982286
248	0x3c2b8bc8	0.010470338
249	0x3ec60fff	0.3868408
250	0x3f7db3e5	0.9910262
251	0x3f1818fd	0.5941313
252	0xbe978aa7	-0.2959797
253	0x3c18e69a	0.009332323
254	0x3ebbd0ad	0.36682644
255	0xbe4903d7	-0.19630371

net.0.bias f4 [128]
0	0x3e3aa255	0.18225987
1	0x3f091d7b	0.5356061
2	0xbef50ecb	-0.4786285
3	0x3ef31f9e	0.4748506
4	0x3eb0741e	0.3446359
5	0x3f33f681	0.7029801
6	0xbeef1455	-0.466952
7	0xbded98c1	-0.11601401
8	0x3e54dfff	0.20788573
9	0x3f11e062	0.56983006
10	0xbf2dee61	-0.6794186
11	0x3ed7a25c	0.42116058
12	0x3ee61020	0.44934177
13	0xbee4bceb	-0.44675383
14	0xbe6e9f0a	-0.23302856
15	0x3e85f365	0.26162258
16	0xbdddacd0	-0.10823977
17	0x3be3c8f2	0.006951445
18	0xbedb5cd9	-0.42844275
19	0x3ec07ac0	0.3759365
20	0x3f3c32b0	0.73514843
21	0xbeafaa87	-0.3430979
22	0x3ed191b7	0.40931484
23	0x3ee17837	0.4403703
24	0xbf10050f	-0.5625772
25	0xbdc4f297	-0.09616583
26	0xbf564560	-0.8369961
27	0x3e74ddbf	0.23912714
28	0xbe52c50d	-0.20582981
29	0xbd7af51b	-0.061268907
30	0xbcf56426	-0.029954981
31	0xbd844cb8	-0.064599454
32	0x3ec20286	0.3789255
33	0x3f3a9069	0.728766
34	0xbe97d6d9	-0.29656103
35	0x3e813476	0.25235337
36	0x3e6581fb	0.22412865
37	0xbeffa95b	-0.49933895
38	0xbe86e1f8	-0.26344275
39	0xbf2844ac	-0.65729785
40	0xbdeeefb3	-0.11666813
41	0xbf19024b	-0.59769124
42	0x3d08d2bd	0.0334041
43	0x3f21542f	0.6301908
44	0xbc8c509e	-0.017128285
45	0xbe3054ae	-0.17219803
46	0x3e61e9ff	0.22061919
47	0xbeb48a68	-0.35261846
48	0x3e6d19eb	0.23154418
49	0x3ef08993	0.4697996
50	0xbf2fa34c	-0.68608546
51	0xbeb76448	-0.35818696
52	0xbee0b6cf	-0.43889472
53	0x3f2f74a3	0.6853735
54	0x3e1fd0c6	0.15606984
55	0x3eca6a79	0.39534357
56	0x3ec6bf9d	0.38818064
57	0xbf16e4ff	-0.5894317
58	0x3e277c8c	0.16356105
59	0x3f4a57bb	0.79040116
60	0x3e319715	0.1734279
61	0xbd79297d	-0.060830582
62	0x3ed576a4	0.41692078
63	0xbf28ce95	-0.6594022
64	0x3e4e3697	0.20138012
65	0xbf2103a7	-0.628962
66	0x3e6f645e	0.23378131
67	0xbeb7de05	-0.35911575
68	0x3eeb191a	0.45917588
69	0xbec69e21	-0.38792518
70	0xbef0e5ce	-0.47050327
71	0x3ec4eb32	0.3846069
72	0x3f056f92	0.5212337
73	0xbf1d7e37	-0.61520714
74	0x3d6fad47	0.05851486
75	0xbe2ef9b3	-0.1708744
76	0x3f48934a	0.78349745
77	0x3f28e51d	0.659746
78	0x3de51944	0.1118646
79	0xbd6a453c	-0.057194933
80	0xbd027421	-0.03184903
81	0xbf330862	-0.69934666
82	0x3f2b89c3	0.6700708
83	0xbf1247e9	-0.57140976
84	0xbed4be65	-0.4155151
85	0xbedd3569	-0.4320481
86	0xbf2b1cdf	-0.6684093
87	0x3eaad5a9	0.33366135
88	0xbdc2b316	-0.09506814
89	0x3edea260	0.43483257
90	0x3e1b9b6f	0.15196012
91	0xbe126f56	-0.14300284
92	0x3ebcfdb0	0.36912298
93	0x3f2a5e7f	0.6655044
94	0x3f2234d7	0.6336188
95	0x3ef3bdd5	0.47605768
96	0x3ea4f454	0.32217658
97	0xbd145386	-0.036212467
98	0x3f307aef	0.6893758
99	0x3edfaf18	0.43688273
100	0x3ef7cb5b	0.48397335
101	0xbdef0fa6	-0.116729066
102	0x3ebbe37d	0.36696997
103	0xbf45af43	-0.77220553
104	0x3cf50b4d	0.029912615
105	0xbe0faa62	-0.1402984
106	0xbce8005a	-0.02832048
107	0xbe0d7212	-0.13813046
108	0x3dbf6979	0.09346289
109	0x3f1f4264	0.6221068
110	0x3ee4d76e	0.4469561
111	0xbf0cb9a1	-0.5497075
112	0x3f3c76de	0.73618877
113	0x3e294678	0.16530788
114	0xbea3a5a0	-0.319623
115	0x3ec901c5	0.39259163
116	0xbd5c9ecd	-0.05386238
117	0x3f02a3d8	0.51031256
118	0x3d3636e2	0.044485934
119	0xbda0f653	-0.078594826
120	0x3f34421d	0.7041338
121	0x3f140dea	0.5783373
122	0xbde8fa50	-0.11375868
123	0x3f03f886	0.5155109
124	0xbde86dfa	-0.11349101
125	0xbf1a1787	-0.6019215
126	0xbf017432	-0.50567925
127	0x3eaf8513	0.34281215

net.2.weight f4 [2, 128]
0	0xbe9f296f	-0.310863
1	0x3f1d2fef	0.61401266
2	0xbd23fa22	-0.040033467
3	0x3e1eab55	0.15495045
4	0x3f0c278c	0.54747844
5	0xbea65edf	-0.32494256
6	0xbcbc7686	-0.023005735
7	0xbc6cd85d	-0.014455882
8	0xbda755b1	-0.08170641
9	0xbf0a4801	-0.5401612
10	0xbe0632eb	-0.13105361
11	0x3f09c131	0.5381041
12	0x3b8e48b9	0.0043421653
13	0x3d30e5cd	0.043187905
14	0x3d8f23d8	0.069892585
15	0xbe61a9dc	-0.22037452
16	0x3c292334	0.0103233345
17	0xbe1304bd	-0.14357276
18	0xbcb60d62	-0.022223178
19	0xbe721d68	-0.2364403
20	0x3e903aac	0.28169763
21	0x3bee57d5	0.007273654
22	0xbe33d139	-0.17560281
23	0x3d8ce86b	0.06880268
24	0xbcaf0f9b	-0.021369746
25	0x3c95c236	0.018281084
26	0xbdffbc4d	-0.124870874
27	0x3edb5858	0.42840838
28	0xbbb86a55	-0.00562791
29	0xbe54c160	-0.20776892
30	0xbe2d8603	-0.16945653
31	0xbd9aec6c	-0.07564625
32	0xbe8b5127	-0.27210352
33	0x3e428b7d	0.18998523
34	0x3e3b84ea	0.18312421
35	0x3cc62375	0.02418683
36	0x3dfe0719	0.124036975
37	0xbe04db32	-0.12974241
38	0x3e4f0722	0.20217565
39	0xbdaf16de	-0.085492834
40	0xbe6e148a	-0.23250023
41	0x3d155be7	0.036464598
42	0xbdbc2fd3	-0.09188809
43	0xbf02eeac	-0.51145434
44	0xbe43549f	-0.19075249
45	0x3d095271	0.033525888
46	0x3e0204af	0.12697099
47	0x3d4c2043	0.049835455
48	0x3bfb10c0	0.007661909
49	0x3e84735b	0.2586926
50	0xbd1004e7	-0.035160925
51	0xbd0d0215	-0.034425814
52	0xbdc5830e	-0.09644137
53	0x3e4b427a	0.19849578
54	0x3bdeb423	0.0067963763
55	0xbe546456	-0.207414
56	0x3eb81f70	0.35961485
57	0x3d155853	0.036461186
58	0xbe462349	-0.19349398
59	0x3ea7803d	0.32715026
60	0xbdaf8f69	-0.08572275
61	0xbeb8a943	-0.36066636
62	0xbe1dcc5c	-0.15409988
63	0xbdad9797	-0.08476179
64	0x3b933441	0.004492313
65	0xbc5e3108	-0.013561495
66	0xbe723da8	-0.23656332
67	0xbcaca895	-0.02107648
68	0x3efe5c85	0.49679962
69	0x3d596023	0.0530702
70	0xbd1f0d3c	-0.03883098
71	0x3ec63988	0.38715768
72	0x3e9f3a3e	0.31099123
73	0x3d7481df	0.059694167
74	0xbe13fe73	-0.14452533
75	0x3e9e785d	0.30951205
76	0xbda4076d	-0.08009229
77	0xbec31c63	-0.38107595
78	0xbd8220ab	-0.06353887
79	0xbe821695	-0.25407854
80	0x3e4e343f	0.20137118
81	0x3b7c4d0f	0.003849808
82	0xbec48f53	-0.38390598
83	0xbc9d090f	-0.019169359
84	0xbdf39497	-0.11893576
85	0x3e98f772	0.29876286
86	0xbdc41992	-0.0957519
87	0xbebbc792	-0.36675698
88	0x3ee1a6c2	0.4407254
89	0xbe343d17	-0.17601429
90	0x3f0d6376	0.5522989
91	0xbd9ebf10	-0.07751286
92	0x3e9b89b7	0.30378506
93	0x3e6d6bab	0.23185603
94	0x3ec3bfb9	0.3823221
95	0x3ea2eedd	0.31822863
96	0x3efe3462	0.4964934
97	0xbdcc599f	-0.09978031
98	0x3e4e09d2	0.20120934
99	0xbe69198b	-0.2276365
100	0x3d9be5ca	0.07612188
101	0xbdd18646	-0.10230689
102	0xbe24ef43	-0.16106896
103	0xbdf2367f	-0.118268006
104	0xbe8abb6b	-0.27096114
105	0xbc3fbdf3	-0.011703002
106	0xbe034166	-0.12817916
107	0xbd8468c5	-0.06465296
108	0xbd9c205f	-0.07623362
109	0xbdf0664f	-0.11738264
110	0x3ef050fb	0.46936783
111	0xbd25b343	-0.04045416
112	0xbebbf021	-0.3670664
113	0xbebd07d9	-0.3692005
114	0xbd0f36d2	-0.03496439
115	0xbeb986da	-0.36235696
116	0xbe922bc5	-0.28549019
117	0x3ead2436	0.3381669
118	0x3edcf518	0.43155742
119	0xbeb18801	-0.34674075
120	0x3e8e4c8a	0.2779277
121	0x3e4eade4	0.20183522
122	0xbcc6f5ec	-0.024287187
123	0x3e863c1e	0.2621774
124	0xbd82fcbc	-0.063958615
125	0xbe135efe	-0.14391705
126	0xbd050176	-0.032472096
127	0xbd9a27d5	-0.075271286
128	0x3ea9a38f	0.33132598
129	0xbf0ad31d	-0.54228383
130	0xbdeee3d6	-0.1166455
131	0xbdb7b222	-0.08969523
132	0xbf034ef9	-0.5129238
133	0x3ee283ad	0.44241086
134	0xbd63fa9b	-0.055658918
135	0x3d66ddad	0.05636375
136	0x3d4f6a6b	0.050638597
137	0x3ef49fb0	0.47778082
138	0x3dbfcda9	0.093653984
139	0xbee30c4a	-0.44345313
140	0x3e04bbde	0.1296229
141	0x3d8641ad	0.065554954
142	0x3d119c5d	0.03554951
143	0x3dc384ee	0.09546839
144	0x3da07f3d	0.07836769
145	0x3dda56e9	0.10661108
146	0xbd471e02	-0.048612602
147	0x3e6fa64b	0.2340328
148	0xbe4de679	-0.2010745
149	0x3ce2aee6	0.027671289
150	0x3dd27b4b	0.102774225
151	0x3cafe895	0.021473208
152	0x3db0e83b	0.086380444
153	0x3d3b46ba	0.045721747
154	0x3b135c29	0.0022485352
155	0xbeb57c78	-0.35446525
156	0x3d7fe9b1	0.062478725
157	0x3e7a09a3	0.24417739
158	0x3e3872c6	0.18012533
159	0x3e132eac	0.14373273
160	0x3eb58df3	0.3545986
161	0xbe2e84a8	-0.17042792
162	0xbe3e6795	-0.18594201
163	0xbc04d581	-0.008107544
164	0xbdf1d100	-0.11807442
165	0x3d718c86	0.058971904
166	0xbdf0c86a	-0.11756976
167	0x3db64088	0.08899027
168	0x3e58b654	0.21163303
169	0x3a443f44	0.0007486234
170	0x3e23104e	0.15924188
171	0x3ed68eaf	0.41905734
172	0x3e430682	0.19045451
173	0xbd602e6a	-0.054731764
174	0xbe725133	-0.23663788
175	0x38fba811	0.000119999175
176	0x3d890187	0.066897444
177	0xbea02290	-0.3127637
178	0x3dfcda62	0.12346341
179	0xbd16ab62	-0.036784537
180	0x3ca810a1	0.020515742
181	0xbe3c3465	-0.18379362
182	0x3dc332dc	0.09531185
183	0x3da1fe81	0.07909871
184	0xbeb630ae	-0.35584015
185	0x3db86093	0.09002795
186	0x3e70fced	0.23533984
187	0xbea592ee	-0.3233866
188	0x3d70ff7c	0.0588374
189	0x3e9eb2db	0.3099583
190	0x3e0e40a8	0.13891852
191	0x3c28226d	0.010262114
192	0x3d50789f	0.050896283
193	0xbd8b2eaf	-0.067960136
194	0x3e7866d0	0.2425797
195	0xbbec2e79	-0.0072076884
196	0xbf0e149a	-0.55500185
197	0xbe5601db	-0.20899145
198	0xbd370db8	-0.044690818
199	0xbebadb66	-0.36495513
200	0xbe3e3598	-0.18575132
201	0xbdbba591	-0.09162439
202	0x3e5f06d7	0.21779953
203	0xbea80466	-0.32815856
204	0x3e49f208	0.19721234
205	0x3ea181f8	0.3154447
206	0x3db03438	0.0860371
207	0x3e91b046	0.28454798
208	0xbe7d1dd0	-0.24718404
209	0x3de76121	0.11297823
210	0x3ea574de	0.32315725
211	0x3d700b1a	0.058604337
212	0x3d96812e	0.07348858
213	0xbe71f151	-0.23627211
214	0x3dbdfee5	0.09277133
215	0x3e5f636f	0.21815275
216	0xbf15be5b	-0.58493584
217	0x3e0d9da9	0.13829674
218	0xbefe8fe9	-0.4971917
219	0xbd6fc930	-0.058541477
220	0xbeae2157	-0.3400981
221	0xbe928ad2	-0.28621536
222	0xbee3d93a	-0.44501668
223	0xbe8c3fd2	-0.2739244
224	0xbef411eb	-0.4766992
225	0x3dc35669	0.09537966
226	0xbe860554	-0.2617594
227	0x3e4bb383	0.19892697
228	0xbd37485a	-0.044746734
229	0x3e82fe6d	0.25584736
230	0x3e3ab40d	0.18232746
231	0x3d1408f6	0.03614136
232	0x3e57973f	0.2105379
233	0x3cd71c3a	0.026258577
234	0x3d80101f	0.06253075
235	0x3e4717c8	0.19442666
236	0x3d4ec2a7	0.050478604
237	0x3e4087be	0.18801782
238	0xbf10d03c	-0.5656774
239	0xbd2ed182	-0.04268027
240	0x3e5f7194	0.2182067
241	0x3eaefe97	0.34178612
242	0xbd636c29	-0.05552307
243	0x3e91681f	0.2839975
244	0x3e082027	0.13293515
245	0xbe9ce403	-0.3064271
246	0xbf08616d	-0.5327366
247	0x3ecd9540	0.4015293
248	0xbe9e21a2	-0.30885035
249	0xbe85dae8	-0.26143575
250	0x3cfe3492	0.031030927
251	0xbe73e418	-0.2381748
252	0x3e1a3b21	0.15061618
253	0x3e286756	0.1644567
254	0xbd6dd52c	-0.058064625
255	0x3e07de68	0.13268435

net.2.bias f4 [2]
0	0x3db559c6	0.088550135
1	0x3d19b61c	0.03752719
