AC/critic.pth (torch, 2696 bytes, 3 tensors)

net.0.weight f4 [30, 4]
0.62703615 -0.41870785 -2.319653 -0.48296142 -0.42614603 0.93782395 2.6912205 1.045459
0.3504289 -0.69247526 -1.9692341 -0.7481108 -0.036908954 -0.0452198 -0.00093803124 -0.031456184
1.4491462 -0.32155672 1.4854999 0.2862235 0.10022281 -0.18991368 0.33450815 0.105337515
-2.8722265 1.4221995 6.8132715 2.3522077 0.4553816 0.046223395 1.5034252 0.5719594
0.035544366 -0.41920528 -1.3498704 0.16152573 0.49392337 -0.12689345 -1.1622783 0.40123
0.10869947 0.64058423 3.9611616 1.014577 -0.0049300785 -0.09002256 0.70697516 -0.27303478
0.46491006 -0.6227039 -1.2797331 -0.42771015 -0.3412118 -0.10050628 0.5723663 -0.10495406
0.49377126 -0.68984777 -2.1903567 -0.9979646 0.5064841 -0.36188072 -0.8180393 -0.38604096
-0.17583795 0.024354916 0.25786 -0.42195573 -1.0120268 -1.4205189 -4.0455956 -1.9493098
-0.45726275 0.770298 -2.4586256 0.19877833 -0.5547963 0.7045753 1.1590524 0.18875284
0.22463687 -0.59050834 0.20899592 -0.409421 -0.017250407 -0.11458827 0.2733216 -0.041653372
-0.04848296 0.14252265 -0.34617558 -0.03237248 0.21630315 0.3604475 2.3701644 0.66130346
-0.2518991 0.09573337 0.00052022154 -0.079194434 0.62481064 0.10955983 2.7032588 0.6100515
0.1554117 -0.04492177 0.01679842 -0.15062366 0.79010594 -0.6878171 -1.6522844 -0.4371128
1.3285471 -0.15563253 -1.5190736 -0.21639282 -0.08348503 0.28573564 -4.4142447 0.48636255
00000000: 7185 203f e060 d6be 3275 14c0 b846 f7be
00000010: d02f dabe 3b15 703f f53c 2c40 9ad1 853f
00000020: 6b6b b33e 0f46 31bf dd0f fcbf 3084 3fbf
00000030: d82d 17bd 6638 39bd 36e6 75ba 33d8 00bd
00000040: 9f7d b93f 15a3 a4be dc24 be3f e38b 923e
00000050: 9e41 cd3d bb78 42be a744 ab3e 32bb d73d
00000060: 8fd2 37c0 a20a b63f 5206 da40 928a 1640
00000070: c727 e93e be54 3d3d 3d70 c03f ee6b 123f
00000080: f896 113d 13a2 d6be 8ec8 acbf 0067 253e
00000090: 86e3 fc3e 5bf0 01be 89c5 94bf 056e cd3e
000000a0: d49d de3d 54fd 233f ac83 7d40 a9dd 813f
000000b0: 7f8c a1bb bf5d b8bd 53fc 343f 37cb 8bbe
000000c0: b108 ee3e 8669 1fbf 4bce a3bf d3fc dabe
000000d0: 50b3 aebe 3dd6 cdbd 9986 123f 27f2 d6bd
000000e0: 96cf fc3e dd99 30bf ce2e 0cc0 9c7a 7fbf
000000f0: f1a8 013f 6e48 b9be 066b 51bf 29a7 c5be
00000100: dd0e 34be f683 c73c 3a06 843e 950a d8be
00000110: 188a 81bf 90d3 b5bf 8575 81c0 fc82 f9bf
00000120: 581e eabe 4032 453f 1f5a 1dc0 8c8c 4b3e
00000130: 2107 0ebf 0c5f 343f d45b 943f 6d48 413e
00000140: 3507 663e 8e2b 17bf 0703 563e a19f d1be
00000150: ba50 8dbc 41ad eabd cff0 8b3e ba9c 2abd
00000160: 1196 46bd 75f1 113e ed3d b1be 0199 04bd
00000170: 937e 5d3e 938c b83e c6b0 1740 2f4b 293f
00000180: ebf8 80be db0f c43d 7a5f 083a b130 a2bd
00000190: 97f3 1f3f e760 e03d 3102 2d40 562c 1c3f
000001a0: 3f24 1f3e e4ff 37bd d79c 893c 173d 1abe
000001b0: 6244 4a3f c814 30bf 0e7e d3bf 40cd dfbe
000001c0: d50d aa3f 225e 1fbe 0171 c2bf 1496 5dbe
000001d0: 33fa aabd f14b 923e 7e41 8dc0 8304 f93e

net.0.bias f4 [30]
-1.8566477 -3.2402365 -1.8377491 -0.3239595 -4.2557716 -0.9448667 -2.2201257 -2.1023512
-1.283094 -1.7190499 -2.60702 -0.8349269 -2.2200203 -1.1361514 -2.211375 -1.2692974
-1.3894922 -1.6833715 -2.1222003 -2.0616024 -1.270948 -0.52646327 -0.7201845 -2.289153
-0.7143603 -2.4578598 -0.60856616 -1.9343514 -3.4806314 -1.1694726
00000000: a2a6 edbf 0960 4fc0 5d3b ebbf 05de a5be
00000010: 482f 88c0 c9e2 71bf 8a16 0ec0 ec8c 06c0
00000020: 6d3c a4bf d409 dcbf 6ad9 26c0 c5bd 55bf
00000030: d014 0ec0 696d 91bf 2b87 0dc0 5678 a2bf
00000040: e1da b1bf b878 d7bf 21d2 07c0 4bf1 03c0
00000050: 6dae a2bf 4cc6 06bf 035e 38bf 7c81 12c0
00000060: 51e0 36bf 934d 1dc0 feca 1bbf d498 f7bf
00000070: aac2 5ec0 47b1 95bf

net.2.weight f4 [1, 30]
-0.74621177 -1.021506 -0.5673175 0.083280794 -2.754545 -0.29377624 -3.4934654 -1.3336197
0.10179495 -0.24871486 -0.8154855 0.20363037 -0.16557577 -0.36491066 -0.7384127 -0.2189386
-0.14233294 -1.2568084 0.033672582 -0.05914999 -0.28203288 -0.10722186 -0.25986278 -1.4381202
-0.15864709 -0.33413 -0.024225663 -1.0550685 -0.7710154 -0.28756535
00000000: bc07 3fbf b5c0 82bf b83b 11bf 1f8f aa3d
00000010: 774a 30c0 d769 96be f094 5fc0 0db4 aabf
00000020: df79 d03d 1caf 7ebe a8c3 50bf 7b84 503e
00000030: b28c 29be 92d5 babe 9d08 3dbf 7131 60be
00000040: babf 11be 19df a0bf 43ec 093d 4347 72bd
00000050: 9d66 90be 2297 dbbd bc0c 85be 5314 b8bf
00000060: 6274 22be 1613 abbe e674 c6bc 7c0c 87bf
00000070: 4461 45bf c43b 93be
