DQN/DQN_StoreTransition.pth (torch, 279488 bytes, 6 tensors)

eval_net.net.0.weight f4 [256, 8]
0.8851344 -40.853252 2.152502 4.814678 0.6363335 -3.571907 -6.708604 -2.0081775
0.17921935 0.061769426 -6.7217326 22.68946 -0.4816132 -0.10523688 -0.07872342 4.211278
0.11848707 -7.520803 0.8005804 2.0972981 0.34822008 0.5979342 -0.4777867 -1.3823661
-1.3145856 -6.352883 0.5060372 3.4335501 -0.043849353 -0.3244971 -1.5452447 0.050690327
-1.1046473 -27.85386 0.40041265 17.854628 0.70689386 1.4666513 -0.0493376 2.4084973
-0.6119155 -3.672398 0.4098368 6.499074 0.4340127 -0.90944463 -0.7078478 -1.0657551
1.4077055 -23.476543 -3.3369756 2.52313 -0.34912914 -0.69131637 -6.524071 -2.743582
-1.8627627 -6.6357894 2.8569689 5.397775 -0.109997995 1.0723504 -2.2599308 -2.8189154
0.85657614 -8.507592 -1.6373223 2.4900043 -0.84383017 -0.20868719 -5.0123205 -2.671901
3.1153107 -18.106312 3.1596534 25.755745 -4.2737074 -0.9648615 -4.854879 -6.007506
0.46660766 -7.7713165 1.0280674 1.2774683 0.48377925 0.007743543 -4.0775414 -4.518878
-0.3523827 -6.4058585 -0.99132735 -0.4615046 -0.7602762 -1.1345873 -3.2330813 -1.2952497
-7.4864283 -7.167584 -13.368425 0.82811576 -5.3453135 -2.4242253 -9.328806 -2.027687
1.936073 -21.80485 -7.991946 1.4663916 -3.2138925 -2.3011744 -7.1040716 -0.5214079
9.854943 -40.03948 1.2839924 12.411175 0.42751047 0.8116446 -15.314793 -7.643813
1.1274681 -0.5541102 12.754206 20.101269 1.081485 3.5035036 -3.9317284 -2.6004436
3.5940213 -22.205503 -0.10951452 4.074913 1.819459 0.17892839 -0.89393836 -0.8973492
3.6745908 -9.396943 -5.147583 5.7510285 -0.196363 -0.38700643 1.430555 -3.9319255
-0.2746177 -3.201337 0.43749788 3.5248935 -0.449703 -0.10418789 -1.5406169 -0.14904144
-1.7991195 -5.914028 3.1493921 3.5139813 0.9643398 0.1271683 -2.6465468 -4.341159
0.269976 -2.7504268 -0.15264092 0.28839043 0.24106473 0.021204978 -0.0454227 -1.0229498
3.9423313 -30.80483 1.9899291 23.725317 -7.567802 3.9256175 -4.8627925 -7.528966
1.3862897 -9.072254 -0.96594936 16.70181 -0.42373505 -2.0349476 -0.518501 -5.152973
-0.10053546 -3.8354256 -0.96567553 0.12301647 0.05129293 -0.032103878 0.09909233 -2.4350164
-3.831121 -7.6448565 5.9199896 1.1132135 -9.883691 -4.48994 0.81242746 -10.749204
1.4305953 -6.826685 -0.64548564 0.679559 -0.7366893 0.40573713 -1.6416155 -1.3089815
-5.06905 -12.452164 -0.4986323 23.660858 -3.037186 1.5727034 -7.9268794 -1.3536414
-0.7203347 -3.0070488 0.7978851 0.968166 0.013483237 0.35259587 -1.3126034 -1.0730066
0.49161163 1.6104552 2.8464332 -5.9384856 7.143934 -2.7609725 -0.39837715 -0.98166203
8.265006 -8.053633 1.5891558 -3.0357957 2.2522466 4.1730504 2.247289 4.077007
4.8586397 -15.950061 -2.3841662 13.106825 0.123470925 0.80207855 -4.8520555 -3.092339
-3.6013777 -33.939335 3.8810444 10.999637 0.504698 0.86897695 -5.721686 -5.38053
00000000: 2b98 623f bb69 23c2 98c2 0940 d811 9a40
00000010: c1e6 223f 209a 64c0 e2ac d6c0 fb85 00c0
00000020: 4785 373e f001 7d3d 6f18 d7c0 0484 b541
00000030: 0196 f6be 6f86 d7bd bf39 a1bd cac2 8640
00000040: 59a9 f23d 6baa f0c0 d6f2 4c3f 223a 0640
00000050: e749 b23e 3712 193f 75a0 f4be 5ff1 b0bf
00000060: 5744 a8bf d14a cbc0 a78b 013f 49bf 5b40
00000070: 619b 33bd 7c24 a6be 94ca c5bf a9a0 4f3d
00000080: 1565 8dbf b5d4 dec1 e302 cd3e 47d6 8e41
00000090: fff6 343f 3bbb bb3f 3916 4abd d224 1a40
000000a0: 7fa6 1cbf 9208 6bc0 21d6 d13e 6af8 cf40
000000b0: ea36 de3e 5dd1 68bf 8335 35bf aa6a 88bf
000000c0: b22f b43f f6cf bbc1 0291 55c0 f67a 2140
000000d0: 0ec1 b2be 1cfa 30bf 31c5 d0c0 d996 2fc0
000000e0: 026f eebf 6358 d4c0 94d8 3640 93ba ac40
000000f0: a146 e1bd c742 893f b5a2 10c0 1c69 34c0
00000100: 9348 5b3f 191f 08c1 c793 d1bf 3b5c 1f40
00000110: 4105 58bf 18b2 55be ee64 a0c0 6d00 2bc0
00000120: 4061 4740 bad9 90c1 c337 4a40 c40b ce41
00000130: 36c2 88c0 2a01 77bf 2b5b 9bc0 7d3d c0c0
00000140: 33e7 ee3e a0ae f8c0 b697 833f 1584 a33f
00000150: eab1 f73e 8cbd fd3b 387b 82c0 a69a 90c0
00000160: 816b b4be cbfc ccc0 a1c7 7dbf 554a ecbe
00000170: 76a1 42bf 283a 91bf ceea 4ec0 beca a5bf
00000180: d290 efc0 d95c e5c0 12e5 55c1 65ff 533f
00000190: cf0c abc0 8226 1bc0 ca42 15c1 a0c5 01c0
000001a0: 3dd1 f73f 5570 aec1 06be ffc0 b8b2 bb3f
000001b0: 6ab0 4dc0 7146 13c0 8e54 e3c0 fd7a 05bf
000001c0: d9ad 1d41 6d28 20c2 dd59 a43f 2c94 4641
000001d0: a7e2 da3e f1c7 4f3f 6409 75c1 1e9a f4c0
000001e0: e050 903f 2bda 0dbf 3a11 4c41 66cf a041
000001f0: 1a6e 8a3f 6739 6040 70a1 7bc0 ab6d 26c0
00000200: 7204 6640 dfa4 b1c1 2649 e0bd b065 8240
00000210: 08e4 e83f 0139 373e 25d9 64bf adb8 65bf
00000220: 7f2c 6b40 e159 16c1 00b9 a4c0 6d08 b840
00000230: 6213 49be b525 c6be 6d1c b73f aba4 7bc0
00000240: b19a 8cbe b5e2 4cc0 b9ff df3e db97 6140
00000250: 793f e6be 7660 d5bd ef32 c5bf 529e 18be
00000260: 8c49 e6bf b83f bdc0 a48f 4940 12e5 6040
00000270: f9de 763f 6838 023e 0661 29c0 c6ea 8ac0
00000280: 4b3a 8a3e fe06 30c0 e74d 1cbe e9a7 933e
00000290: acd9 763e 10b6 ad3c 270d 3abd 05f0 82bf
000002a0: 284f 7c40 4b70 f6c1 ffb5 fe3f 73cd bd41
000002b0: 6f2b f2c0 513d 7b40 ff9b 9bc0 4aed f0c0
000002c0: f171 b13f f427 11c1 7548 77bf 4f9d 8541
000002d0: cdf3 d8be 953c 02c0 7bbc 04bf 28e5 a4c0
000002e0: 89e5 cdbd 9d77 75c0 8336 77bf 0ff0 fb3d
000002f0: 8918 523d 5b7f 03bd ebf0 ca3d 4fd7 1bc0
00000300: 1631 75c0 aaa2 f4c0 8e70 bd40 c87d 8e3f
00000310: 9923 1ec1 97ad 8fc0 3ffb 4f3f bdfc 2bc1
00000320: bf1d b73f 3474 dac0 8c3e 25bf 94f7 2d3f
00000330: ac97 3cbf c7bc cf3e 7520 d2bf b58c a7bf
00000340: a835 a2c0 103c 47c1 bc4c ffbe 7049 bd41
00000350: 4161 42c0 584e c93f ffa8 fdc0 1f44 adbf
00000360: db67 38bf 7d73 40c0 3342 4c3f bad9 773f
00000370: cbe8 5c3c 7287 b43e 6303 a8bf 4858 89bf
00000380: 85b4 fb3e 6523 ce3f f62b 3640 1308 bec0
00000390: 1b9b e440 c6b3 30c0 17f8 cbbe 344e 7bbf
000003a0: 773d 0441 aedb 00c1 7569 cb3f 7a4a 42c0
000003b0: cf24 1040 a189 8540 95d3 0f40 d776 8240
000003c0: fa79 9b40 7333 7fc1 2e96 18c0 8eb5 5141
000003d0: 53de fc3d 0555 4d3f 0a44 9bc0 e2e8 45c0
000003e0: f97c 66c0 e1c1 07c2 0863 7840 83fe 2f41
000003f0: e333 013f 4675 5e3f 0d18 b7c0 4d2d acc0

eval_net.net.0.bias f4 [256]
-16.128973 -0.055044416 -4.792535 -4.198714 -8.918927 -5.672287 -10.598433 -5.622517
-6.201109 -15.736824 -4.9306545 -14.686414 -12.268174 -10.268057 -10.355548 -2.3725843
-13.221464 -8.620312 -4.6450186 -6.5564938 -2.1755342 -7.8406324 -11.572695 -4.069131
-11.110623 -6.451394 -20.761877 -3.0117433 6.8701987 -5.672937 -6.6507416 -12.72025
-5.593965 -10.80657 -6.462621 -4.0991874 -6.472015 -5.3585553 -11.72105 -15.180539
-2.0238378 -11.174041 -5.0659347 0.8001322 -12.815992 -3.3596027 -9.595207 -11.800596
-5.6118727 -10.150159 -4.534888 -15.200848 -14.814483 -7.2102056 -2.739682 -6.195688
-8.240774 -4.3143764 -14.372808 -5.1208296 -6.6348658 -14.883565 -0.8339413 -6.109786
-6.4234123 -17.602278 -8.668629 -10.57164 -7.4944415 -2.8355348 -16.593107 -15.973876
-7.183634 -6.995844 -11.613151 -9.194257 -11.621425 -3.615966 -9.072932 -4.2076116
-4.4034286 -11.152595 -9.787912 -2.506284 -9.742412 -4.718471 -8.43489 -8.950156
-6.804542 -3.2228649 -3.6269827 -7.77742 -9.060914 -7.4872546 -6.2861247 -16.471397
-9.883372 -11.042688 -16.907928 -7.112281 -4.704925 -7.023197 -7.9781423 -11.48104
-4.5667872 -4.9473696 -3.936092 -6.86598 -14.820924 -17.588423 -4.7500987 -15.802118
-8.867942 -8.699066 -0.86674213 0.29284635 -5.6337485 -5.430648 -2.9955463 -10.419537
-3.8244872 -3.2862682 -14.520979 -14.231705 -6.5291038 -10.851064 -5.6333323 -9.617586
-12.02485 -5.772276 -4.9142895 -1.8091171 -7.9798408 -12.983792 -6.0085306 -13.621058
-19.898813 -8.033166 -5.034185 -2.6637902 5.575766 -4.748743 -2.1783946 -0.52600765
-12.303587 -10.204448 -8.8279 -1.4142287 -5.4861465 -8.09204 -18.129242 -3.894077
-17.60639 -3.741196 -8.220262 -6.396643 -7.254529 -7.1374493 -6.8013015 -2.574007
-18.174656 -12.172704 -5.6615376 -4.5278907 -5.1420684 -17.271852 -8.965174 -6.642398
-5.8633037 -6.450973 -7.528697 -6.3424196 -10.685521 -2.2943566 -0.068253145 -19.037313
-14.090539 -3.3272521 -6.7481503 -3.2471368 -7.351762 -8.620964 -9.480306 -4.753883
-6.976034 -11.31587 -3.069597 2.2017574 -4.630788 -8.172668 -3.064367 -17.300842
-16.201157 -2.7223885 -14.58743 -1.942887 -22.417313 -2.0380042 -3.3372838 -5.2103386
-3.0738502 -10.711042 -3.3639224 -18.590511 -2.3741333 -3.405287 -4.4884067 -16.540419
-8.679497 -14.59233 -19.422134 -14.610798 -19.564648 -6.358933 -4.179844 -15.575252
-7.285284 -10.860904 -2.1238022 -12.945157 -3.0531733 -9.725587 -8.205977 -17.765419
-8.387427 -2.0120192 -5.4958854 -12.939436 -11.473106 -6.8012094 -3.408612 -8.129564
-3.384502 -17.78592 -19.742683 -15.119396 -5.5153985 -5.091697 -15.947999 -3.2692401
-9.252631 -0.9862166 -11.503333 -6.836624 -11.418114 -9.583446 -5.297342 -5.1802254
-2.0615783 -9.714677 -5.9180965 -9.831959 -12.237787 -8.038938 -22.08857 -13.129547
00000000: 2308 81c1 4176 61bd 725c 99c0 dd5b 86c0
00000010: edb3 0ec1 6083 b5c0 2e93 29c1 a9eb b3c0
00000020: 7c6f c6c0 08ca 7bc1 ecc7 9dc0 8dfb 6ac1
00000030: 714a 44c1 f649 24c1 53b0 25c1 6cd8 17c0
00000040: 1e8b 53c1 ccec 09c1 fea3 94c0 ccce d1c0
00000050: f43b 0bc0 76e6 fac0 c229 39c1 5236 82c0
00000060: 1dc5 31c1 d271 cec0 5318 a6c1 67c0 40c0
00000070: abd8 db40 b388 b5c0 e0d2 d4c0 2586 4bc1
00000080: c301 b3c0 b6e7 2cc1 cbcd cec0 8b2c 83c0
00000090: bf1a cfc0 4979 abc0 6c89 3bc1 7de3 72c1
000000a0: 8f86 01c0 dfc8 32c1 231c a2c0 77d5 4c3f
000000b0: 4e0e 4dc1 bb03 57c0 f885 19c1 3ecf 3cc1
000000c0: 7694 b3c0 0d67 22c1 cd1d 91c0 ac36 73c1
000000d0: 1f08 6dc1 01ba e6c0 f356 2fc0 1343 c6c0
000000e0: 36da 03c1 5f0f 8ac0 06f7 65c1 d6dd a3c0
000000f0: d250 d4c0 1523 6ec1 2d7d 55bf 5e83 c3c0
00000100: 988c cdc0 77d1 8cc1 b4b2 0ac1 7025 29c1
00000110: 77d2 efc0 6779 35c0 afbe 84c1 ff94 7fc1
00000120: 54e0 e5c0 f4dd dfc0 77cf 39c1 ad1b 13c1
00000130: 5bf1 39c1 fd6b 67c0 bb2a 11c1 c1a4 86c0
00000140: e3e8 8cc0 0771 32c1 4a9b 1cc1 f566 20c0
00000150: ebe0 1bc1 b7fd 96c0 4ff5 06c1 d733 0fc1
00000160: cfbe d9c0 6b43 4ec0 7c20 68c0 a0e0 f8c0
00000170: 81f9 10c1 9797 efc0 ef27 c9c0 6cc5 83c1
00000180: 4b22 1ec1 daae 30c1 7043 87c1 ce97 e3c0
00000190: bf8e 96c0 08be e0c0 f14c ffc0 57b2 37c1
000001a0: 1f23 92c0 da50 9ec0 eee8 7bc0 1cb6 dbc0
000001b0: 8122 6dc1 17b5 8cc1 cf00 98c0 7ad5 7cc1
000001c0: 17e3 0dc1 602f 0bc1 d0e2 5dbf f5ef 953e
000001d0: ab47 b4c0 dec7 adc0 08b7 3fc0 6cb6 26c1
000001e0: 66c4 74c0 3852 52c0 ee55 68c1 10b5 63c1
000001f0: 6bee d0c0 f59d 2dc1 4244 b4c0 a2e1 19c1
00000200: c965 40c1 7cb6 b8c0 dc41 9dc0 2691 e7bf
00000210: db5a ffc0 9dbd 4fc1 e245 c0c0 dbef 59c1
00000220: c530 9fc1 d987 00c1 0b18 a1c0 8a7b 2ac0
00000230: ad6c b240 b4f5 97c0 d16a 0bc0 70a8 06bf
00000240: 7edb 44c1 6b45 23c1 143f 0dc1 7205 b5bf
00000250: 838e afc0 ff78 01c1 b008 91c1 8f38 79c0
00000260: e3d9 8cc1 c16f 6fc0 3186 03c1 4db1 ccc0
00000270: 1a25 e8c0 fc65 e4c0 43a4 d9c0 88bc 24c0
00000280: b265 91c1 65c3 42c1 512b b5c0 7be4 90c0
00000290: d38b a4c0 c12c 8ac1 5a71 0fc1 868e d4c0
000002a0: 2fa0 bbc0 5f6e cec0 16eb f0c0 1af5 cac0
000002b0: e5f7 2ac1 bdd6 12c0 4ec8 8bbd 6b4c 98c1
000002c0: d972 61c1 b3f1 54c0 d9f0 d7c0 17d1 4fc0
000002d0: a241 ebc0 78ef 09c1 55af 17c1 cf1f 98c0
000002e0: ac3b dfc0 ce0d 35c1 4774 44c0 98e9 0c40
000002f0: 6a2f 94c0 40c3 02c1 971e 44c0 2068 8ac1
00000300: f89b 81c1 9d3b 2ec0 1d66 69c1 85b0 f8bf
00000310: a856 b3c1 a96e 02c0 0f96 55c0 18bb a6c0
00000320: f6b9 44c0 6e60 2bc1 814a 57c0 5eb9 94c1
00000330: cdf1 17c0 39f0 59c0 07a1 8fc0 c752 84c1
00000340: 38df 0ac1 2f7a 69c1 8860 9bc1 d4c5 69c1
00000350: 6684 9cc1 617c cbc0 48c1 85c0 3b34 79c1
00000360: 0c21 e9c0 43c6 2dc1 60ec 07c0 5d1f 4fc1
00000370: 3167 43c0 019c 1bc1 af4b 03c1 941f 8ec1
00000380: e732 06c1 ecc4 00c0 4bde afc0 ee07 4fc1
00000390: d891 37c1 82a3 d9c0 b326 5ac0 b212 02c1
000003a0: ae9b 58c0 9049 8ec1 04f1 9dc1 0ce9 71c1
000003b0: 257e b0c0 2fef a2c0 012b 7fc1 3b3b 51c0
000003c0: c70a 14c1 b178 7cbf a70d 38c1 a0c5 dac0
000003d0: 98b0 36c1 cb55 19c1 d383 a9c0 68c4 a5c0
000003e0: e6f0 03c0 516f 1bc1 0c61 bdc0 b44f 1dc1
000003f0: facd 43c1 7d9f 00c1 64b5 b0c1 a012 52c1

eval_net.net.2.weight f4 [256, 256]
-2.1863296 -0.16158842 -0.5955159 -0.91603523 -1.60131 -0.07077808 1.7482878 0.353789
0.021169696 4.854777 0.026940098 -0.21348064 -0.19588445 1.6213362 0.4978283 -0.52557087
-4.0783443 0.66495407 -0.9146134 -0.7679152 0.2192141 -11.432424 0.13146518 -0.16373818
-4.8897767 -0.4836331 7.8571877 -0.60884136 1.7612078 0.33569798 1.9948547 -2.4446063
-10.725332 -2.4744828 -0.16878076 -0.6615747 -3.0741417 -0.7547809 -2.3894455 -0.086070724
-0.37229997 -7.585364 0.13508585 -1.9453624 -2.2746544 -0.2841648 -0.36385942 -0.41560096
0.45783263 -1.0402316 0.3065543 1.730944 1.7778863 -2.548627 2.1558318 -0.021378674
2.764955 -0.49154434 -0.430653 -1.6051955 0.080136515 -6.032912 -10.219104 -1.4480388
-3.514459 4.228798 0.60124546 -0.18952985 0.16781092 -0.17380966 -0.6629692 -2.3989565
0.016447844 -2.5173936 -0.58767647 0.872154 -7.784778 0.82297385 0.93725806 0.41360635
-0.01148393 -3.7387483 -1.0007657 0.014637264 -0.92692965 0.7261054 -0.44585225 -0.44644693
-2.1154795 -0.7770963 -0.45615125 3.9447958 -2.2359948 -0.106095254 1.264603 0.19011788
3.6788046 -1.3476882 0.22821264 -1.7381195 -0.040549234 -3.3518968 2.4996 2.1043139
0.3235832 -1.0388384 -2.113887 0.25862008 -3.0599391 -0.4383192 -0.168115 -1.0910383
-8.537775 -2.7191877 -0.014759329 1.2308336 -1.6595182 0.46992213 -0.060089383 -0.08287379
-1.4335915 -0.24967524 1.0412861 -3.3882315 0.9106822 5.9076524 0.2673661 6.396289
-4.2951846 -1.0878716 -0.14852773 0.6496347 -1.3809613 -2.1100566 -1.7561171 -0.45039013
-10.287998 -2.1848989 -2.0843823 -0.08649873 3.5058389 -0.091445595 0.37585804 3.308756
-0.053863365 2.130962 -1.9450601 -0.020073444 -0.19008625 -7.229099 7.082782 0.9668015
5.4691586 -0.1685943 -0.009470888 4.2555223 -0.592967 -7.6483994 1.527363 -0.004266754
0.77874726 -4.345609 0.5189717 -1.2819438 -0.95725405 8.049143 -1.9585629 -0.45658636
-0.0036593326 -1.8504604 0.13097557 1.5502535 0.026502525 -0.316954 2.1436515 -5.8563614
8.062329 -0.44310918 0.19582063 -0.041792203 0.26086488 1.8658767 2.9407187 -0.14385891
-2.1057682 -2.6697 0.53626984 -2.3868864 -0.22481434 -0.50773996 1.5250559 6.0469
-0.79221976 -2.892536 2.096878 0.34640104 -1.6246715 0.047129754 -1.0004282 -1.108147
-1.06171 -0.72671366 0.75246805 -5.860633 -0.090247594 -0.59715784 -1.2240691 -2.668841
0.17326617 -1.7986803 -2.8553553 -3.030369 -3.4517355 0.020395314 -0.005147915 0.4574443
0.0806928 -2.8883195 0.0007133361 -8.639627 0.55435634 -3.4857526 -0.18192026 -0.430379
-0.66288257 -0.52180296 -1.9086725 1.4399301 -3.7869868 -0.64371836 1.3114657 -3.992553
-0.239316 -3.8214934 -3.2245507 2.5177138 -1.4145632 -0.14212142 -2.8282285 -1.654024
1.7057812 -2.507315 -0.21867558 -1.6103159 -4.2015843 1.5596025 -1.1030781 7.8608265
0.03407471 1.7947001 1.0599482 2.1013658 -0.9946808 -2.2266681 5.4140334 -0.5567345
00000000: d3ec 0bc0 6f77 25be bb73 18bf 4981 6abf
00000010: baf7 ccbf 19f4 90bd e5c7 df3f d523 b53e
00000020: 126c ad3c 555a 9b40 7bb1 dc3c ab9a 5abe
00000030: ef95 48be f287 cf3f 5ae3 fe3e d08b 06bf
00000040: cc81 82c0 6e3a 2a3f 1b24 6abf 1796 44bf
00000050: a979 603e 35eb 36c1 cf9e 063e fbaa 27be
00000060: 0d79 9cc0 c29e f7be 156e fb40 07dd 1bbf
00000070: 426f e13f 9be0 ab3e 6657 ff3f 6e74 1cc0
00000080: f69a 2bc1 ed5d 1ec0 ddd4 2cbe f65c 29bf
00000090: bdbe 44c0 5239 41bf adec 18c0 d945 b0bd
000000a0: 1a9e bebe 4dbb f2c0 f253 0a3e a301 f9bf
000000b0: f093 11c0 0c7e 91be c84b babe a6c9 d4be
000000c0: 0a69 ea3e 4f26 85bf aff4 9c3e 938f dd3f
000000d0: c791 e33f b41c 23c0 26f9 0940 5422 afbc
000000e0: 06f5 3040 b3ab fbbe 8d7e dcbe 0c77 cdbf
000000f0: 9d1e a43d 9d0d c1c0 7381 23c1 5659 b9bf
00000100: e5ec 60c0 5052 8740 39eb 193f 1d14 42be
00000110: a0d6 2b3e 29fb 31be 59b8 29bf 8188 19c0
00000120: a1bd 863c fa1c 21c0 f771 16bf 7c45 5f3f
00000130: e71c f9c0 6aae 523f 25f0 6f3f 36c4 d33e
00000140: 1827 3cbc a747 6fc0 1719 80bf 23d1 6f3c
00000150: 434b 6dbf 0be2 393f bf46 e4be b194 e4be
00000160: 0464 07c0 c8ef 46bf a88c e9be 8977 7c40
00000170: 8a1a 0fc0 7848 d9bd 83de a13f 43ae 423e
00000180: 8971 6b40 0c81 acbf 93b0 693e b37a debf
00000190: f416 26bd 7a85 56c0 72f9 1f40 14ad 0640
000001a0: b2ac a53e a8f8 84bf ed49 07c0 da69 843e
000001b0: 0bd6 43c0 606b e0be 5726 2cbe 25a7 8bbf
000001c0: ba9a 08c1 2c07 2ec0 1dd1 71bc f58b 9d3f
000001d0: 186b d4bf a299 f03e 4920 76bd bcb9 a9bd
000001e0: ed7f b7bf deaa 7fbe dd48 853f c9d8 58c0
000001f0: 7822 693f 7d0b bd40 36e4 883e 66ae cc40
00000200: 2772 89c0 603f 8bbf a717 18be 764e 263f
00000210: 57c3 b0bf 2b0b 07c0 72c8 e0bf 8999 e6be
00000220: a49b 24c1 62d5 0bc0 8566 05c0 3f26 b1bd
00000230: aa5f 6040 d447 bbbd 7770 c03e a9c2 5340
00000240: d59f 5cbd ae61 0840 bbf7 f8bf 1071 a4bc
00000250: f8a5 42be c754 e7c0 26a6 e240 4e80 773f
00000260: 5903 af40 fca3 2cbe c92b 1bbc 3d2d 8840
00000270: afcc 17bf b0bf f4c0 a180 c33f 20d0 8bbb
00000280: fb5b 473f 3b0f 8bc0 54db 043f bc16 a4bf
00000290: 9a0e 75bf 4ac9 0041 30b2 fabf b0c5 e9be
000002a0: 6ad1 6fbb e3db ecbf 761e 063e b56e c63f
000002b0: d31b d93c cb47 a2be 9631 0940 5067 bbc0
000002c0: 4dff 0041 35df e2be 3485 483e 4d2e 2bbd
000002d0: 1590 853e 0cd5 ee3f bc34 3c40 c04f 13be
000002e0: e8c4 06c0 5ddc 2ac0 fb48 093f bfc2 18c0
000002f0: bb35 66be 3ffb 01bf 0835 c33f 3480 c140
00000300: eace 4abf 4f1f 39c0 4033 0640 7a5b b13e
00000310: 3cf5 cfbf 210b 413d 080e 80bf c3d7 8dbf
00000320: 1de6 87bf e809 3abf bfa1 403f 4e8a bbc0
00000330: bbd3 b8bd 56df 18bf 4cae 9cbf 4ace 2ac0
00000340: b06c 313e 283b e6bf 24be 36c0 91f1 41c0
00000350: 3ce9 5cc0 1314 a73c d7af a8bb 2436 ea3e
00000360: 4442 a53d 3ada 38c0 2dff 3a3a ea3b 0ac1
00000370: 4cea 0d3f 9216 5fc0 4e49 3abe a35a dcbe
00000380: acb2 29bf e194 05bf 614f f4bf a14f b83f
00000390: fe5d 72c0 baca 24bf 1cde a73f fd85 7fc0
000003a0: 410f 75be 5993 74c0 0a5f 4ec0 3922 2140
000003b0: 6810 b5bf 4788 11be b201 35c0 0fb7 d3bf
000003c0: 0a57 da3f d977 20c0 7eec 5fbe d51e cebf
000003d0: 6173 86c0 0ea1 c73f aa31 8dbf e48b fb40
000003e0: ec91 0b3d bcb8 e53f 62ac 873f c77c 0640
000003f0: 67a3 7ebf bb81 0ec0 c33f ad40 2786 0ebf

eval_net.net.2.bias f4 [256]
-0.6595622 -1.1476718 -3.463508 -5.31732 -3.817223 -1.2572737 -0.9267611 -9.55131
-6.8251967 -3.9066389 -0.9609371 -1.61129 -8.24276 -2.503659 -0.73314416 -3.0661178
-6.016862 -2.2572963 -3.7173283 -1.3046216 -2.4491334 -5.741667 -0.9770185 -1.131958
-5.314771 -7.0707383 -2.7993476 -0.3303303 -1.9649221 -1.3475413 -3.50056 -1.245462
-3.0077 -1.9413185 -1.0264924 -0.33251452 -1.1373562 -2.3376272 -2.8893323 -6.038469
-3.9998643 -0.371291 -0.67882735 -1.1384549 -1.8070096 -0.685765 -2.3294845 -7.186772
-4.0341487 -4.7366114 2.246794 -2.9396503 -2.1466336 -1.0898391 -1.4374766 -3.3279154
-0.33725145 -1.6002786 -2.6234672 -1.8202734 -2.8934603 -4.5997643 -1.8959204 -0.38180342
-0.6512154 -1.396772 -0.51213926 -2.240365 -0.6996374 -0.59260315 -3.2546556 -7.263566
-2.5758514 -3.7372327 -1.7309796 -2.3922436 -0.42555445 -2.3270166 -1.6329379 -1.478616
-1.1431676 -2.752093 -2.537169 -2.4019153 -1.625911 -3.6755915 1.0086843 -2.3621616
-7.337996 -6.3011637 -0.6783392 -2.8315668 -3.1900005 -0.6936248 -5.955723 -1.559772
-2.3282566 -1.5171248 -2.5647535 -0.71727884 -4.35132 -0.68976516 -0.7229914 -3.0712929
-1.6850213 -3.074757 -3.1743 -1.0492289 -1.3028198 -7.667425 -4.3441863 -4.727329
-5.2282376 -11.630822 -2.0867848 -1.8552552 -1.4238338 -6.575541 -0.3266046 -2.9862683
-1.023986 -0.71522844 -1.6334736 -0.36658585 -1.300966 -0.7587543 -1.7563158 -12.335109
-2.4396732 -5.070087 8.688089 -1.3271781 -0.8721799 -6.824882 -1.07306 -1.3948919
-1.9382901 -0.70376617 -3.312338 -1.3055873 -0.72576684 -2.3585799 -0.8854846 -0.7517224
-1.2845715 -4.9506 -0.39306134 -1.4174883 -1.7807143 -0.37201852 -3.4728878 -3.493358
-2.0813394 -1.8108424 -1.7362767 -1.0803429 -4.1709933 -1.87088 -1.0730146 -1.3502444
-0.63560486 -8.226237 -2.7533154 -0.665103 -5.454731 -0.51813704 -0.3715517 -3.6725588
-2.902299 -0.58177125 -2.177625 -0.37410402 -4.7953687 -2.1230192 -3.0929847 -2.323092
-0.72740394 -4.079112 -3.8127837 -2.11279 -3.1452777 -1.1503408 -7.337576 -8.117069
-1.5523976 -0.99378455 14.885845 -0.40508562 -0.36008927 -3.3292913 -2.3466234 -3.3413577
-1.3376706 -1.8657944 -4.5650907 -2.1119604 -1.7825193 -4.4093566 -1.8363909 -1.7984166
-2.6084628 -1.9589566 -0.8364848 -1.4556154 -6.510649 -1.3219868 -1.5034127 3.585258
-0.97614497 -5.027364 -1.2138002 -0.8526868 -1.1929346 -1.7818384 -1.9180489 -0.7199346
-1.3925279 -6.776157 -1.5491163 -0.28305894 -2.2088075 -1.316426 -2.6974304 -1.2223049
-0.33646226 -1.519027 -2.7688615 -2.3034108 -3.5358698 -0.45288825 -1.0642622 -0.71040964
-5.946656 -2.4505837 -3.814437 -0.74554193 -1.6578449 1.7804798 -1.5736078 -3.4838266
-5.885918 -1.8369846 -1.4462106 -5.391145 -3.2650647 -0.6933203 -1.2393627 -3.853488
-2.3827608 -2.4118898 -1.9869955 -2.7438877 -2.049663 -1.8472701 -3.4228718 -1.6005583
00000000: 11d9 28bf e9e6 92bf 1daa 5dc0 7c27 aac0
00000010: 624d 74c0 58ee a0bf 3740 6dbf 2ad2 18c1
00000020: 0368 dac0 5f06 7ac0 f9ff 75bf c03e cebf
00000030: 58e2 03c1 f33b 20c0 56af 3bbf 463b 44c0
00000040: 228a c0c0 8b77 10c0 b5e8 6dc0 d7fd a6bf
00000050: 9abe 1cc0 bcbb b7c0 e21d 7abf 00e4 90bf
00000060: 9b12 aac0 7d43 e2c0 8328 33c0 0e21 a9be
00000070: 9182 fbbf 3c7c acbf 2d09 60c0 4c6b 9fbf
00000080: 287e 40c0 207d f8bf 1a64 83bf 583f aabe
00000090: e394 91bf af9b 15c0 d2ea 38c0 233b c1c0
000000a0: c7fd 7fc0 db19 bebe a1c7 2dbf e4b8 91bf
000000b0: 174c e7bf 4c8e 2fbf 4616 15c0 09fa e5c0
000000c0: bf17 81c0 5292 97c0 79cb 0f40 3b23 3cc0
000000d0: 7262 09c0 d97f 8bbf 3cff b7bf 91fc 54c0
000000e0: 39ac acbe eed5 ccbf e3e6 27c0 b8fe e8bf
000000f0: 742e 39c0 4531 93c0 85ad f2bf bd7b c3be
00000100: 0db6 26bf 6dc9 b2bf 8f1b 03bf 2462 0fc0
00000110: 701b 33bf d7b4 17bf 474c 50c0 226f e8c0
00000120: c0da 24c0 d22e 6fc0 bd90 ddbf 851a 19c0
00000130: 46e2 d9be d7ed 14c0 1c04 d1bf 4a43 bdbf
00000140: 5153 92bf 4b22 30c0 fa60 22c0 fbb8 19c0
00000150: da1d d0bf e43c 6bc0 911c 813f a82d 17c0
00000160: ddd0 eac0 22a3 c9c0 a3a7 2dbf 6438 35c0
00000170: f828 4cc0 6591 31bf 4895 bec0 9ca6 c7bf
00000180: 2802 15c0 2531 c2bf ec24 24c0 969f 37bf
00000190: 033e 8bc0 7394 30bf f715 39bf 1090 44c0
000001a0: c7ae d7bf d2c8 44c0 bb27 4bc0 224d 86bf
000001b0: cdc2 a6bf 8c5b f5c0 9303 8bc0 4746 97c0
000001c0: b94d a7c0 d917 3ac1 e28d 05c0 0179 edbf
000001d0: 3040 b6bf d56a d2c0 b838 a7be 051f 3fc0
000001e0: f911 83bf 3619 37bf aa15 d1bf 24b1 bbbe
000001f0: 0e86 a6bf b93d 42bf f5ce e0bf 9b5c 45c1
00000200: 9b23 1cc0 273e a2c0 6a02 0b41 f9e0 a9bf
00000210: 2f47 5fbf 6f65 dac0 085a 89bf d18b b2bf
00000220: e419 f8bf 052a 34bf 59fd 53c0 7c1d a7bf
00000230: dbcb 39bf f9f2 16c0 1eaf 62bf e170 40bf
00000240: d76c a4bf 516b 9ec0 563f c9be 4270 b5bf
00000250: 72ee e3bf 3679 bebe cb43 5ec0 2d93 5fc0
00000260: aa34 05c0 afc9 e7bf 513e debf ad48 8abf
00000270: c778 85c0 ff78 efbf 8b58 89bf cfd4 acbf
00000280: 00b7 22bf ab9e 03c1 5236 30c0 3144 2abf
00000290: 288d aec0 a1a4 04bf 063c bebe 340b 6bc0
000002a0: 44bf 39c0 f6ee 14bf 355e 0bc0 908a bfbe
000002b0: a973 99c0 8cdf 07c0 76f3 45c0 8aad 14c0
000002c0: 2537 3abf 1688 82c0 a604 74c0 f437 07c0
000002d0: 3b4c 49c0 5e3e 93bf 6ccd eac0 84df 01c1
000002e0: f7b4 c6bf aa68 7ebf 6c2c 6e41 6267 cfbe
000002f0: 9f5d b8be 1c13 55c0 142f 16c0 ced8 55c0
00000300: ca38 abbf 5ad2 eebf 3915 92c0 5c2a 07c0
00000310: 9829 e4bf 7319 8dc0 db0e ebbf 8432 e6bf
00000320: 0ef1 26c0 17bf fabf de23 56bf 9b51 babf
00000330: 3d57 d0c0 dd36 a9bf d46f c0bf de74 6540
00000340: a3e4 79bf 2ae0 a0c0 ce5d 9bbf af49 5abf
00000350: 15b2 98bf 4813 e4bf a082 f5bf a24d 38bf
00000360: 5b3e b2bf 47d6 d8c0 7149 c6bf 1aed 90be
00000370: 1a5d 0dc0 a680 a8bf b3a2 2cc0 7d74 9cbf
00000380: c844 acbe 7a6f c2bf 0735 31c0 156b 13c0
00000390: b14b 62c0 f8e0 e7be be39 88bf 68dd 35bf
000003a0: 024b bec0 5dd6 1cc0 bc1f 74c0 d6db 3ebf
000003b0: 4334 d4bf c3e6 e33f fb6b c9bf 04f7 5ec0
000003c0: 7159 bcc0 5022 ebbf 6e1d b9bf 4384 acc0
000003d0: d2f6 50c0 707d 31bf 70a3 9ebf 8c9f 76c0
000003e0: 277f 18c0 675c 1ac0 de55 febf db9b 2fc0
000003f0: ae2d 03c0 5973 ecbf 5510 5bc0 18df ccbf

eval_net.net.4.weight f4 [4, 256]
0.7667541 -0.081987865 0.24192579 1.2334076 -0.1641888 0.5616105 0.015109319 0.19919574
-0.07447348 0.92763114 -0.1932389 0.16869354 -0.64178014 1.0567478 0.036063023 0.68925124
-0.6164336 0.4192752 -1.8227067 -0.057252377 0.1915513 0.74272925 -0.07042921 -0.058780447
0.68435544 0.36833274 0.10548093 -0.26680115 -0.12683195 -0.043281935 2.592893 0.31884056
0.62452346 0.013933694 0.6318966 0.06274816 0.016971804 0.84616065 -0.4297624 0.66811216
-0.4910479 0.290775 -0.26003775 0.035322394 0.019997427 0.008378658 -0.2910735 0.4173168
-0.1042709 0.7217831 1.2391425 0.06690128 0.67840815 0.0453601 0.60776526 -0.9394925
-0.2832161 0.048309248 -1.0376992 -0.66300285 0.18126097 -0.16489136 -0.59623075 -0.022839868
0.24936606 0.20657986 -2.018744 0.0077634626 -0.058627084 -0.17350797 1.3818755 -0.0073349406
0.33879575 0.107881896 -0.3317682 -0.021225834 0.03714476 0.882523 -0.114312105 -1.4132665
0.08657882 -0.77865714 -1.49891 -1.641247 0.37021604 0.17610042 -1.586432 1.7774122
-0.4518064 1.076786 0.0017869398 -1.6662458 -0.23049764 0.29006207 0.85685956 0.21461132
0.5843543 -1.7706331 -0.13271111 -1.6957597 -0.8486982 0.026229665 -0.055363618 0.011962977
0.5100531 0.9161298 1.1993618 -0.199992 -0.2991158 3.2107873 -0.12559298 3.4645393
-1.1683152 0.11231193 1.3498921 0.037321124 -0.8145591 -0.29754445 -0.00024306038 -2.2252216
0.5588221 -0.01789204 -0.16590445 -0.007815652 -1.1684448 -0.32500106 -1.7286526 2.2788172
0.5111059 3.7823002 -0.7864811 0.45377263 -0.043348998 1.3048804 -0.2943136 -0.21288379
0.19301541 0.28476357 0.50641906 -2.1397123 -0.020642627 -1.309561 -0.32931042 -0.42325577
-0.1858209 0.84943867 -0.048394315 -1.0200784 0.6500589 0.11899981 1.0275209 0.7461354
0.79178387 -1.6366751 -0.028166968 0.20979935 0.36185884 0.59443015 -0.13587008 0.41465646
-0.009647399 0.97164726 0.24911398 -0.30497983 0.5444065 0.36688378 -0.027514514 -0.5730855
0.1493938 0.30953056 -0.05329839 -0.0238987 2.8837109 -0.551832 1.5591893 -1.1570321
0.028715815 1.411884 0.53157485 0.473496 -0.048994467 0.6291752 -0.85193354 -0.2374994
-0.40520948 -0.08343576 -2.0261436 0.01321464 0.048501745 -0.37077364 -1.5814565 1.1856132
-0.70079124 -0.2877555 0.8576929 1.0638111 -0.23648712 0.7645358 -0.89175665 -0.81670624
-1.1594257 -0.17309065 0.3345479 0.57977223 1.5059634 -0.64382094 -0.74993896 0.8875062
-0.007745985 -0.26327705 0.98246884 -0.02385214 0.6481593 0.13311467 -1.8701338 -0.29752284
-0.27143836 -1.5940325 -0.043253385 0.3656584 -0.5188098 -0.1585658 1.5622545 -0.07347561
-0.017546995 0.49640945 -1.7140554 0.88371277 -0.26356423 -0.108533315 -0.008164139 0.014543399
-0.21604061 1.2944509 0.092818424 -0.07585566 -0.36893767 -2.094572 -2.6446905 -0.5485311
1.0692261 0.59607553 -0.15675792 -2.5144994 -0.6039967 -0.034533903 0.031982556 -0.56003416
-0.9034378 -0.13319476 -1.2232734 -0.31542104 0.4796591 0.72986156 -1.4104719 -0.10578194
00000000: ff49 443f 41e9 a7bd 65bb 773e 4de0 9d3f
00000010: 1c21 28be b5c5 0f3f 148d 773c f8f9 4b3e
00000020: 8d85 98bd 3c79 6d3f 6be0 45be 00be 2c3e
00000030: b44b 24bf 8343 873f d2b6 133d c572 303f
00000040: 98ce 1dbf 3dab d63e 744e e9bf 7881 6abd
00000050: 0626 443e 8123 3e3f 313d 90bd c4c3 70bd
00000060: eb31 2f3f 1c96 bc3e 6306 d83d 299a 88be
00000070: 3ce0 01be 6648 31bd f5f1 2540 123f a33e
00000080: c5e0 1f3f 264a 643c fac3 213f 1b82 803d
00000090: 7408 8b3c fc9d 583f d109 dcbe 6609 2b3f
000000a0: a16a fbbe 76e0 943e ab23 85be 37ae 103d
000000b0: a5d1 a33c a446 093c 9607 95be 8caa d53e
000000c0: fb8b d5bd c7c6 383f 399c 9e3f 8a03 893d
000000d0: 28ac 2d3f 83cb 393d 8196 1b3f 9582 70bf
000000e0: b301 91be ebdf 453d 54d3 84bf 8eba 29bf
000000f0: 7a9c 393e 48d9 28be 94a2 18bf ad1a bbbc
00000100: d159 7f3e ac89 533e 1a33 01c0 a564 fe3b
00000110: f422 70bd 13ac 31be 4ce1 b03f f159 f0bb
00000120: a376 ad3e 2ff1 dc3d 86dd a9be cde1 adbc
00000130: 1b25 183d 07ed 613f 771c eabd ebe5 b4bf
00000140: 3d50 b13d 1356 47bf 48dc bfbf 6214 d2bf
00000150: f58c bd3e ab53 343e 3410 cbbf 3e82 e33f
00000160: 2b53 e7be 20d4 893f c037 ea3a 8b47 d5bf
00000170: 9307 6cbe 0483 943e 265b 5b3f 12c3 5b3e
00000180: 3e98 153f 1ba4 e2bf 6ce5 07be a70e d9bf
00000190: 4944 59bf 98df d63c f6c4 62bd 5d00 443c
000001a0: d792 023f 7c87 6a3f b084 993f b4ca 4cbe
000001b0: b525 99be 8a7d 4d40 729b 00be 03bb 5d40
000001c0: 5a8b 95bf cc03 e63d 44c9 ac3f 09de 183d
000001d0: f286 50bf bf57 98be 06de 7eb9 086a 0ec0
000001e0: f70e 0f3f 5492 92bc dbe2 29be 380d 00bc
000001f0: 998f 95bf 8a66 a6be 7d44 ddbf 24d8 1140
00000200: d6d7 023f 3511 7240 d356 49bf e354 e83e
00000210: b88e 31bd 5206 a73f 46b0 96be 35fe 59be
00000220: d5a5 453e 88cc 913e aea4 013f 0cf1 08c0
00000230: ba1a a9bc b29f a7bf 609b a8be fbb4 d8be
00000240: d647 3ebe d074 593f 1e39 46bd ee91 82bf
00000250: 436a 263f 2cb6 f33d ce85 833f bb02 3f3f
00000260: 59b2 4a3f 927e d1bf 6abe e6bc a4d5 563e
00000270: 9045 b93e 932c 183f 8721 0bbe da4d d43e
00000280: 2010 1ebc e0bd 783f bc17 7f3e 5126 9cbe
00000290: 395e 0b3f 31d8 bb3e 1e66 e1bc bbb5 12bf
000002a0: b0fa 183e ca7a 9e3e 6a4f 5abd 35c7 c3bc
000002b0: b88e 3840 dd44 0dbf 8493 c73f a119 94bf
000002c0: 6e3d eb3c 9db8 b43f 4a15 083f 116e f23e
000002d0: 6cae 48bd a011 213f 5118 5abf 0b33 73be
000002e0: 9e77 cfbe 5ee0 aabd 56ac 01c0 3882 583c
000002f0: c4a9 463d 0bd6 bdbe 2b6d cabf 2cc2 973f
00000300: 0e67 33bf b054 93be c391 5b3f f62a 883f
00000310: ae29 72be 9eb8 433f 2a4a 64bf a913 51bf
00000320: 1068 94bf ad3e 31be dd49 ab3e f46b 143f
00000330: 69c3 c03f 73d1 24bf 00fc 3fbf 9b33 633f
00000340: 08d2 fdbb 40cc 86be 1483 7b3f 9065 c3bc
00000350: c5ed 253f 364f 083e 8b60 efbf ea54 98be
00000360: f8f9 8abe 4209 ccbf 762a 31bd 9437 bb3e
00000370: b8d0 04bf 135f 22be f5f7 c73f 617a 96bd
00000380: b7be 8fbc 6129 fe3e 2b66 dbbf 003b 623f
00000390: e4f1 86be b746 debd e2c2 05bc 7047 6e3c
000003a0: c039 5dbe 91b0 a53f 9617 be3d 365a 9bbd
000003b0: 66e5 bcbe 780d 06c0 9c42 29c0 896c 0cbf
000003c0: 67dc 883f 6898 183f 2685 20be 8fed 20c0
000003d0: 879f 1abf 6c73 0dbd 2400 033d 665e 0fbf
000003e0: b347 67bf 3564 08be 3994 9cbf de7e a1be
000003f0: e195 f53e 35d8 3a3f 588a b4bf 34a4 d8bd

eval_net.net.4.bias f4 [4]
-12.649648 -13.481471 -10.508835 -10.177729
00000000: f564 4ac1 1bb4 57c1 3024 28c1 fad7 22c1
