DQN/DQN_Double_Net.pth (torch, 557858 bytes, 12 tensors)

eval_net.net.0.weight f4 [256, 8]
000000 f7 b6 85 be 52 c6 f7 c0 01 25 c5 3f 52 4e 6d 40
       -0.26116154 -7.742959 1.5401918 3.7079053
000010 0f 8f d1 bf a8 8a a5 3f df b8 1f c1 54 4b d9 bf
       -1.6371783 1.293294 -9.982635 -1.6976113
000020 65 ef 3f c1 a1 a9 0f 40 88 63 8f c1 6d 3a 39 41
       -11.995946 2.2447283 -17.9236 11.576764
000030 44 57 a3 c1 e4 b0 ef 40 d3 cf 4c bf ec f9 04 c1
       -20.41761 7.490343 -0.80004615 -8.311016
000040 f4 dc 8e bf 36 1d 06 c1 9d 98 dd 3f 61 1d 77 40
       -1.116118 -8.382132 1.7312199 3.8611681
000050 49 27 80 3f 08 8d 82 bf 0c 69 74 c0 c3 d0 24 c0
       1.0011989 -1.0199289 -3.8189116 -2.5752418
000060 cf 30 88 c1 ce 91 92 bf f4 dd 2b c1 04 d3 6c be
       -17.023832 -1.1450746 -10.741688 -0.23127371
000070 94 96 ea 40 f7 05 62 c0 d4 55 4d be 37 36 c4 c1
       7.330881 -3.531614 -0.20052272 -24.526472
000080 95 1f 11 40 89 f1 86 3f 8b a7 9d c0 d2 6c 5b c0
       2.2675526 1.0542461 -4.926702 -3.4285169
000090 82 95 ad 41 06 7e dc c0 4b 16 59 c0 c7 7b e3 c1
       21.698002 -6.8903837 -3.3919857 -28.435438
0000a0 d5 a8 5a bf 58 0c fd bf aa 53 8c bf 9d 1c 06 40
       -0.8541387 -1.9769392 -1.0963032 2.0954964
0000b0 79 aa ed be 1f 2c e8 be 50 c8 18 c0 b4 59 13 c0
       -0.46419123 -0.45346162 -2.387226 -2.30235
0000c0 74 51 22 41 00 c5 88 c1 85 a6 8c c0 13 14 e1 c0
       10.144886 -17.096191 -4.395327 -7.0337005
0000d0 04 e8 76 c1 bb 1e 87 40 5a ab 04 c0 55 db 8b c1
       -15.431644 4.2225013 -2.0729585 -17.482096
0000e0 03 3c 3c c0 67 05 e6 bf 5d 4f bc c0 24 d0 4c c0
       -2.9411628 -1.7970399 -5.884688 -3.200204
0000f0 17 23 4e 41 e1 dd 49 41 2f d8 98 c1 2c 37 06 c1
       12.883567 12.61667 -19.105558 -8.38847
000100 3c 7a 1f c1 dd 5e a1 bf 3f 08 49 41 62 90 6e 40
       -9.967342 -1.2607075 12.564513 3.7275624
000110 d7 4b 8f c1 cb 02 f4 c0 e5 64 a7 c1 c8 01 eb 41
       -17.912031 -7.625341 -20.924265 29.37587
000120 ef c2 80 41 10 52 ee 40 f8 c1 41 40 8f 23 e5 3f
       16.095182 7.4475174 3.027464 1.7901477
000130 da 42 0d c0 d3 c0 df be 13 54 33 c0 6e f6 0b c1
       -2.2072053 -0.437018 -2.8020065 -8.7476635
000140 70 82 18 40 b3 18 8d c1 bd d7 92 c0 01 74 47 41
       2.3829613 -17.63706 -4.5888352 12.465821
000150 57 27 51 40 5f b1 ac bf e4 31 d7 bf a6 d7 24 c0
       3.268026 -1.3491629 -1.68121 -2.5756621
000160 83 b0 ac 40 89 aa a7 3f b1 64 11 bf ca fd 6e 40
       5.396547 1.3098918 -0.5679427 3.73424
000170 6f dd 40 41 c8 9d 5c 41 02 8c 76 c1 ac f8 a2 c0
       12.054061 13.788521 -15.409182 -5.0928555
000180 28 65 14 40 d6 ed 3a c1 fe 33 bb bf bb 8a d8 3f
       2.318674 -11.683065 -1.4625242 1.6917337
000190 18 9e c3 be 39 07 af 3e fb e2 02 c0 8b 3d 94 c0
       -0.38206553 0.34185198 -2.0451038 -4.6325126
0001a0 fe 85 12 c1 c1 6d 10 c1 27 42 b1 c1 78 33 e6 40
       -9.157713 -9.026795 -22.1573 7.193783
0001b0 79 21 0d c1 f4 27 c8 c0 a8 21 6f 41 c3 3d 14 c1
       -8.820672 -6.254877 14.945717 -9.265079
0001c0 28 5f 9c c1 d4 08 40 c1 80 6a 6e c0 6a 60 c4 c0
       -19.546463 -12.002155 -3.7252502 -6.1367693
0001d0 8c 16 98 c0 07 5e c8 bf 07 2e 79 40 4c 08 45 41
       -4.7527523 -1.5653695 3.8934343 12.314526
0001e0 15 e4 49 40 c1 44 92 3f 60 b2 c5 c0 de 56 d5 40
       3.154546 1.1427232 -6.1780243 6.666854
0001f0 bf a3 d9 c1 f0 7d 52 c1 c6 86 50 ba 4f 92 01 42
       -27.204954 -13.155746 -0.0007954653 32.39288
000200 20 f8 08 c1 62 2d 25 c0 f6 f5 4e c1 8a 93 13 c1
       -8.560577 -2.580895 -12.935049 -9.22352
000210 79 85 eb c0 20 5f 26 bf f6 fe 3c c1 7d a3 1c c1
       -7.360043 -0.649889 -11.812246 -9.789914
000220 c4 b7 db bf ce 0a cb c0 f0 7f ba bf 35 14 38 c0
       -1.7165456 -6.345069 -1.4570293 -2.8762333
000230 31 7f 1b 41 d5 cd 04 41 d9 2d 45 c1 6c c5 34 c1
       9.718553 8.300252 -12.323693 -11.298199
000240 7e 00 16 c1 3f ab be 3f 5a c9 36 40 91 99 95 3f
       -9.37512 1.489601 2.8560395 1.168749
000250 13 56 fe 40 7c a0 cf 40 6d 72 18 c1 cf d2 02 41
       7.948007 6.4883404 -9.527936 8.176467
000260 4d 0c 8a c0 ec 80 1f c0 29 6f b6 40 f7 01 cf 3f
       -4.3140016 -2.4922438 5.7010694 1.6172475
000270 f7 ed 26 c1 6d 1a 9a c1 df ad 0d 3f 07 98 2c 41
       -10.433097 -19.262903 0.5534343 10.787116
000280 40 28 c0 3e 65 3c 20 c0 39 e9 e9 be f2 8f 2d 3f
       0.37530708 -2.5036862 -0.45685747 0.6779777
000290 ef df 77 bc 5e e5 8b be 03 58 89 3e 8f 34 aa be
       -0.0151290735 -0.2732343 0.2682496 -0.33243224
0002a0 86 35 31 c1 82 be 54 c1 d4 a8 49 41 d2 00 36 41
       -11.075567 -13.296511 12.603718 11.3752
0002b0 72 49 9e c0 2f 18 f3 41 5f e0 25 be 7c 0e 99 c1
       -4.9464655 30.386808 -0.16198872 -19.132072
0002c0 0b 45 0e 40 72 05 32 40 31 7d 59 40 01 e1 4f 40
       2.222964 2.7815824 3.398266 3.2481081
0002d0 71 5f 46 c2 04 78 33 c1 94 32 84 3f 87 e0 d7 c0
       -49.593204 -11.216801 1.0327935 -6.746158
0002e0 68 0a 73 40 39 1d 11 c1 ce 27 c7 40 f5 53 a9 40
       3.7975101 -9.069634 6.223609 5.2914987
0002f0 7e 4c 00 c1 21 b2 0e 3f f2 2e b8 40 79 03 93 c0
       -8.018675 0.55740553 5.7557306 -4.594174
000300 51 13 dd 3f 7d d9 15 c1 06 ff 12 3f 16 76 8d 3f
       1.727152 -9.365598 0.57420385 1.1051662
000310 da c7 de c0 4f b5 40 c1 c9 bf bf c1 ca 31 2a 40
       -6.961896 -12.044265 -23.968645 2.659289
000320 e7 81 2e bf 9f c3 58 c1 a6 3f c5 c1 93 58 d7 40
       -0.68166965 -13.547759 -24.656078 6.7295623
000330 17 4a 15 c1 43 8d 9b c1 b8 2a 13 40 92 64 92 41
       -9.330588 -19.443975 2.2994823 18.299107
000340 3b b4 8e 3e af f0 8b c0 0a 7d 11 3f fe 9b b5 3f
       0.2787188 -4.3731303 0.5683142 1.418823
000350 3d 24 51 be 39 52 0b 3d 7c df 81 3c 4c 81 0e 3f
       -0.2042398 0.03401396 0.015853636 0.5566604
000360 c6 04 47 40 ee ca 90 40 82 7e 17 41 44 f3 04 c1
       3.1096663 4.5247717 9.468386 -8.309391
000370 53 1f d5 41 a9 70 ee c0 99 77 86 c1 34 27 29 c1
       26.640295 -7.4512525 -16.808397 -10.572071
000380 d5 d0 d9 c0 95 0a 78 3e 1a b7 9b c0 87 2b d2 40
       -6.806742 0.24222787 -4.8661013 6.5678134
000390 f8 8a 30 bf bb c4 13 c0 a4 fa 85 c0 1a 9e df 3e
       -0.6896205 -2.3088825 -4.186846 0.4367531
0003a0 82 91 0e 40 86 ac 4e bf 81 68 8f c0 e9 5d 8f c0
       2.227631 -0.80732 -4.481507 -4.4802136
0003b0 8b bc 75 41 b1 30 be c0 3b 0c 8f 40 d4 11 3c c0
       15.358531 -5.943444 4.470243 -2.9385881
0003c0 8a 46 20 41 64 e4 e5 c0 d3 06 93 bf aa 37 be c0
       10.017221 -7.1841297 -1.1486458 -5.944295
0003d0 cd c8 f4 c0 a2 0a 77 3f 2f c0 b5 c1 2f 93 ad 40
       -7.649512 0.965006 -22.71884 5.4242167
0003e0 9b 60 0a 3f 8a 7a 34 c1 93 85 a9 3d dd 9c e4 3f
       0.5405366 -11.279917 0.082774304 1.7860371
0003f0 fd 80 0d 3f 20 e1 ae be 79 fc 4d c0 94 b9 97 be
       0.55274945 -0.34156132 -3.2185347 -0.29633772

eval_net.net.0.bias f4 [256]
000000 96 42 e5 c0 14 2b b7 c1 50 1f ce c0 57 55 96 c0
       -7.164378 -22.896034 -6.4413223 -4.6979175
000010 d1 88 3a c1 9b d8 44 c0 65 39 20 40 aa b3 b6 bf
       -11.658402 -3.0757205 2.503503 -1.4273579
000020 a1 b0 88 3e b4 31 8a c1 0b 14 2d c1 49 58 03 c1
       0.26697257 -17.27427 -10.817393 -8.209054
000030 40 37 b7 c0 64 19 04 c1 dc cb dc 40 c5 40 fb bf
       -5.7254944 -8.256199 6.899885 -1.9629141
000040 72 6b 5a 40 9a 23 e5 c0 ed 70 8f c0 9e a0 8e c0
       3.412808 -7.160596 -4.482535 -4.4571066
000050 52 72 4c c0 31 8b 4b c1 2d 3b 4d c0 80 c0 c6 c0
       -3.1944776 -12.721482 -3.2067368 -6.2109985
000060 0e 0e 59 c1 3f bf 42 c0 d3 a8 5f c0 82 8d 58 c1
       -13.565931 -3.0429227 -3.4946792 -13.534548
000070 8b e7 4b c1 b7 5c b8 c0 f3 c4 4b c0 05 fa 84 c0
       -12.744029 -5.7613177 -3.1838958 -4.15552
000080 52 b2 fc bf ae 5c 49 c0 ac a5 5b c1 b8 f6 95 c0
       -1.9741919 -3.1462817 -13.727947 -4.686367
000090 d5 1d 08 41 10 bc 58 bf c0 f4 ce c0 f9 11 13 c1
       8.507283 -0.8466196 -6.4673767 -9.191888
0000a0 30 2a 1d c1 cc 0e 94 c0 75 47 08 c0 f7 42 13 c0
       -9.8228 -4.6268063 -2.1293614 -2.3009622
0000b0 5c a1 7c c0 1a 96 66 c0 1b fe a2 bf ff 7f f3 be
       -3.9473486 -3.6029115 -1.2733797 -0.4755859
0000c0 a8 a8 41 41 ba ba ab 40 1f 34 8b c0 d3 65 b6 c1
       12.103676 5.366544 -4.3501124 -22.799719
0000d0 29 0a f1 c0 6f 88 9c c0 eb ab 52 c1 bb 04 29 c0
       -7.5324903 -4.8916545 -13.166972 -2.6409137
0000e0 e2 43 3c c1 ce 3b d0 c1 f0 71 fd c0 bc 7a 4b c0
       -11.766573 -26.029202 -7.9201584 -3.179366
0000f0 24 1b 69 3f ea ce d6 41 c3 e6 64 c1 ac dd ce c0
       0.9105704 26.851032 -14.306338 -6.4645596
000100 ac ed 44 3e 24 ff 24 3d 4e e7 e7 c0 67 02 df c0
       0.1923129 0.040282384 -7.2469854 -6.9690433
000110 45 ad e6 c0 b1 c9 59 c0 a9 27 f9 bf 39 7b e0 c0
       -7.208651 -3.4029353 -1.9465228 -7.015042
000120 55 62 23 c1 06 5a ea c0 e9 5c 8a c0 08 36 70 c1
       -10.211507 -7.323489 -4.3238416 -15.013191
000130 9e 8f 86 40 0a 3c 22 41 af db 6c c0 e7 c6 8f c0
       4.2050314 10.139658 -3.7009084 -4.49303
000140 4a e3 64 c1 e4 09 a8 bf 18 db 6e c0 a0 b8 d6 c0
       -14.3054905 -1.3128018 -3.7321224 -6.710037
000150 98 d2 69 c0 6a cd 3d c1 10 12 9b c1 82 cb cc c0
       -3.6534786 -11.86265 -19.38382 -6.3998423
000160 c1 fb 38 c1 26 33 2e 41 02 72 37 c0 97 02 05 c1
       -11.561463 10.887487 -2.8663335 -8.313132
000170 df ba 49 40 af ba 60 c1 5b 84 e9 40 50 1e 00 3f
       3.1520307 -14.045577 7.2974067 0.50046253
000180 2c c0 99 41 02 26 02 c1 2b 89 75 40 aa 45 c8 bf
       19.218834 -8.134279 3.836497 -1.564626
000190 6b db f9 40 3e 70 9b 3f 9e 38 2f c1 82 a4 2f c0
       7.8080344 1.2143629 -10.951323 -2.7444158
0001a0 04 97 4b c0 e2 4c ff bf b2 a2 1d c1 e5 db c5 c0
       -3.1810923 -1.9945338 -9.852221 -6.1830926
0001b0 03 8e 85 c0 f0 2d 34 c0 50 f0 c0 40 02 b0 48 c1
       -4.1735854 -2.8153038 6.029335 -12.542971
0001c0 08 4c c2 c0 ee 7a 88 c1 be 21 ae c0 20 7b 38 c0
       -6.071781 -17.060024 -5.441619 -2.882515
0001d0 86 3e 81 c1 7b 89 4b 41 1e 78 49 41 1f ec 95 c0
       -16.155529 12.721065 12.5918255 -4.6850734
0001e0 9a 51 34 c1 0f 8e 6b 3f d5 aa 86 bf 96 47 3b c1
       -11.269922 0.9201364 -1.0520884 -11.704977
0001f0 f2 04 64 c0 65 3f e0 c0 19 48 4a c1 7f e5 e8 bf
       -3.5628018 -7.0077386 -12.642602 -1.8195037
000200 94 82 86 c0 5f cb 58 c1 d3 98 a6 c0 a6 ab cc 40
       -4.2034397 -13.549651 -5.2061553 6.395953
000210 ae 78 76 3f 1c 86 4b 40 6a eb 80 c0 a1 15 8a c0
       0.9627789 3.1800604 -4.028737 -4.3151402
000220 dd 35 a3 c0 bf 35 21 c0 49 70 11 c0 4c 1c 02 be
       -5.100325 -2.5189054 -2.2724783 -0.12706107
000230 f4 6c af c0 ea a7 8a c0 02 c1 cb c0 15 9c 6e c0
       -5.48205 -4.3329973 -6.3673105 -3.7282765
000240 5e 75 ea 40 36 ea 08 c0 e7 d0 7f 41 89 1e 70 c1
       7.326827 -2.139295 15.988502 -15.007455
000250 d0 77 e6 c0 6c c9 97 c1 3a b1 f0 c0 7e 44 e5 c0
       -7.2021255 -18.97335 -7.521634 -7.164611
000260 ee 69 44 c1 df a4 11 40 6a 29 75 c0 f3 8b 0f c1
       -12.275862 2.275688 -3.8306527 -8.971667
000270 11 0d 9f c0 ee 9c 1e c1 a4 8b f8 bf 2e d5 1b c0
       -4.970345 -9.913313 -1.9417615 -2.4348865
000280 7b f3 5b c1 8b ef 01 c0 f4 2d 9d c0 3f 66 49 41
       -13.746943 -2.0302455 -4.9118595 12.587462
000290 1a 59 84 c1 05 bd ca c0 1d 34 5d c0 fe 9f 4d bf
       -16.543507 -6.3355737 -3.4563057 -0.80322254
0002a0 b8 d4 83 40 d9 7e b2 c0 e4 d6 95 40 e3 88 0b c1
       4.1197166 -5.5779843 4.682482 -8.72092
0002b0 72 39 88 41 18 c9 32 c1 30 23 0b 40 9c 31 dc bf
       17.02805 -11.174095 2.1740227 -1.720264
0002c0 d8 94 8e c0 60 6a 18 41 0b 05 7a 3e 1f 2e ab 40
       -4.4556694 9.52597 0.24415986 5.34938
0002d0 d9 14 ca c0 69 5f fd be 05 26 8a c1 bc aa 8e c1
       -6.315045 -0.49486855 -17.268564 -17.833366
0002e0 a4 2c 04 41 64 38 b2 be 2f aa 38 c1 e3 f7 25 41
       8.260899 -0.34808648 -11.541549 10.373019
0002f0 86 f7 aa c0 06 ca 73 c0 ab a0 f0 c0 72 1b 31 c0
       -5.3427153 -3.8092055 -7.519613 -2.7673001
000300 e8 36 5a 41 f5 29 14 41 8d 8f 1a c0 ae c7 01 c1
       13.638405 9.260243 -2.4150116 -8.11125
000310 b3 12 ec 40 95 8e ad bf c6 0a 32 c1 77 be 41 c1
       7.3772826 -1.3559138 -11.12763 -12.109
000320 f8 85 96 40 0e 3d b6 c0 05 50 83 c0 62 c0 23 40
       4.7038536 -5.694953 -4.103518 2.558617
000330 06 21 c4 c0 c3 05 2b c0 52 84 e0 bf 3d 70 b7 c0
       -6.129031 -2.6722267 -1.7540381 -5.732451
000340 d7 f0 6a 40 87 ad a7 c0 e6 d8 18 c1 21 71 ee 40
       3.6709497 -5.2399325 -9.552954 7.4513097
000350 36 33 5d c1 46 ed 55 c1 55 b1 f3 c0 e5 37 2b 41
       -13.825003 -13.370428 -7.615397 10.701146
000360 be 35 f5 c0 cf 50 92 40 3c 33 e3 c0 78 4b 25 41
       -7.6628103 4.5723643 -7.100004 10.330925
000370 2e 9a 39 40 ec 4c e3 c0 b8 c5 1d c1 cb 29 a9 c0
       2.9000354 -7.10314 -9.860771 -5.2863517
000380 c0 90 0d 3f 92 b4 2f 41 4e 44 3e 40 bc dc 4b 41
       0.55298996 10.981585 2.972919 12.74139
000390 b3 77 09 c0 7a b2 57 c1 f4 fb 7e c1 3a 1e 20 bf
       -2.1479309 -13.481073 -15.936512 -0.6254612
0003a0 16 0e 0e c1 c1 36 5b c0 ee ac 8a c0 2a da 72 c0
       -8.878439 -3.425217 -4.3336096 -3.7945657
0003b0 f9 f0 b0 c1 5a f4 1b c1 14 14 02 c1 10 4f 9e c1
       -22.117662 -9.747156 -8.129902 -19.788605
0003c0 6b 37 44 41 2e 71 32 c1 a1 4a 6e 40 f7 4c 79 c1
       12.26353 -11.152632 3.723305 -15.58129
0003d0 df ad 89 c0 8a 5c 65 41 40 fa 3c c1 0d e0 dc c0
       -4.3024745 14.335093 -11.811096 -6.90235
0003e0 8d e5 2e c1 1e 7f 03 41 67 94 68 c1 65 38 82 c1
       -10.931043 8.218534 -14.536231 -16.277536
0003f0 fa d2 60 c0 af 54 f6 c0 36 6d 42 c0 0e b0 ec 40
       -3.512877 -7.6978374 -3.0379157 7.396491

eval_net.net.2.weight f4 [256, 256]
000000 0d 9d c5 be 02 ab 70 c0 62 00 2c 40 61 19 b0 bf
       -0.38596383 -3.7604375 2.6875234 -1.3757745
000010 2f 5b b4 bd 8a 4b 80 bf 0d dd 9c c0 ca 83 39 bf
       -0.088064544 -1.0023053 -4.9019837 -0.7246672
000020 a4 e1 f0 bf 22 9a f2 be 6a 2a 04 c0 e8 d5 a7 c0
       -1.881886 -0.4738322 -2.0650887 -5.2448616
000030 d0 82 99 c0 4e 20 65 bf 6f da 88 c0 a7 8f 1a c0
       -4.7972183 -0.8950242 -4.2766643 -2.4150178
000040 c1 15 1f 40 ee 9b 0f bf 58 c2 df 3f d8 48 ee bf
       2.4857028 -0.56097305 1.7481184 -1.861598
000050 11 8f 91 bf 8d a5 7e c0 b6 16 05 c1 70 1c 96 c0
       -1.1371785 -3.9788544 -8.318045 -4.6909714
000060 cf cb 26 c0 6e 9c 51 c0 84 07 4f 3e 78 e6 b2 bf
       -2.6061895 -3.2751727 0.2021771 -1.3976583
000070 c3 23 0f c1 a0 75 c7 bf 29 dc 2e 3b 3a 0b c4 3f
       -8.946231 -1.5582771 0.0026681519 1.5315926
000080 f0 1b 8c c0 e9 8f 4f 3f 03 65 00 c0 3b 9a b5 3f
       -4.3784103 0.81078964 -2.0061653 1.4187692
000090 1b f5 43 3f 4f ba 87 bf 71 74 d0 c0 da 73 fc 3f
       0.76545876 -1.0603732 -6.514214 1.9722855
0000a0 2d 89 24 c0 d8 4a 94 c0 3b ca b6 3e b1 88 c2 c0
       -2.5708725 -4.634136 0.35701165 -6.079186
0000b0 4a a0 1b 40 0f 18 31 40 a3 85 4a c0 c5 86 6e c0
       2.4316583 2.7670934 -3.1644065 -3.7269757
0000c0 c6 b4 3f bf 00 f9 9b be 4e 40 98 bf 20 53 51 40
       -0.74885213 -0.3046341 -1.1894624 3.2706985
0000d0 b6 a4 16 40 7e db 58 be 9c 1e 07 40 d4 e6 31 bf
       2.3538032 -0.2117748 2.1112432 -0.6949284
0000e0 a2 75 e4 3d 99 21 97 c0 dc 1b 17 3f 8c 7b 69 bf
       0.11155249 -4.7228513 0.59026885 -0.9120414
0000f0 4a fe ba c0 01 18 71 3f a8 7d 60 40 21 d4 28 bf
       -5.843541 0.9417725 3.5076694 -0.65948683
000100 c8 56 98 3d 96 ef a2 c0 31 4c 08 c0 a2 86 16 40
       0.07438427 -5.0917463 -2.1296504 2.3519673
000110 0a e7 4b 3f c0 c3 fe 3e e6 60 e5 3d c0 1a 1e c0
       0.7964941 0.4975872 0.112001225 -2.4703827
000120 43 26 dc c0 32 62 e1 bf 8f ee 4f 3f 1c 52 89 c0
       -6.8796706 -1.7608092 0.81223387 -4.291273
000130 32 91 81 c0 49 7f fd 3f c4 a3 8d 3e 3a 5b 5a c0
       -4.048974 1.9804469 0.27664006 -3.411818
000140 59 bf bf c0 f7 5a 87 be ae f5 a4 bf e2 e6 fc be
       -5.992108 -0.26436588 -1.2887475 -0.493949
000150 4c e2 36 3f 48 0c 92 bf 7a 7b 7a c0 20 51 1f 40
       0.7143905 -1.1409998 -3.9137864 2.4893265
000160 a6 39 8a bf d6 43 83 c0 47 f0 84 3e a7 28 86 3f
       -1.0798843 -4.1020308 0.25964567 1.0481156
000170 94 9d e8 be 0c 2b a4 c0 b3 d8 b5 bf 0e 4b 4f c0
       -0.45432723 -5.1302547 -1.4206756 -3.238956
000180 12 b0 8d bf 58 fa 56 be 13 d0 1e be 40 23 2a 3f
       -1.1069357 -0.20993936 -0.15509062 0.6646004
000190 d4 b5 7b 40 46 f6 ce c0 f1 9f 18 bf 68 b3 7a 3f
       3.932973 -6.4675627 -0.5961905 0.9793
0001a0 b1 74 57 c0 97 9c 10 bd 70 e7 a7 bf 6f 09 0d bf
       -3.3664973 -0.035305586 -1.3117504 -0.5509252
0001b0 77 63 91 bf 03 8c 9c be c6 f7 7a 40 8e 44 57 3f
       -1.1358479 -0.3057557 3.921373 0.8408898
0001c0 6e cc 5f c0 79 83 be bf d7 90 d2 3e 80 b4 49 3f
       -3.4968524 -1.4883872 0.4112613 0.78791046
0001d0 d5 56 06 40 4b 8f 5b 38 62 e4 b1 c0 e3 d2 8f 3f
       2.0990498 5.234712e-05 -5.5591288 1.1236233
0001e0 c6 78 52 bf eb d5 bc bf 63 c3 52 bf 3e ff 2a 3f
       -0.82215536 -1.4752783 -0.82329386 0.6679572
0001f0 b7 00 d5 bc 14 4f 8b be 05 a7 b5 c0 6f 77 28 c0
       -0.026001317 -0.2720877 -5.676638 -2.6322896
000200 5f 9b b1 3f 1b f9 7d bd 4a b7 d2 c0 69 51 a5 c0
       1.387554 -0.062005144 -6.584874 -5.166188
000210 d4 64 98 3f 73 5f 00 c0 ce 18 46 40 9a f7 15 bf
       1.190577 -2.0058258 3.095264 -0.58580935
000220 07 ed 2f bf db d6 73 3f 51 b5 2e 3f e9 51 7b c0
       -0.6872105 0.9524972 0.68245417 -3.9268744
000230 a0 66 4a c0 d8 21 81 bf bc 20 57 40 e7 ce 02 c0
       -3.1625137 -1.0088453 3.361373 -2.0438783
000240 a4 54 e3 c0 4e f3 d6 3f 76 94 e6 c0 97 1f 5c 3e
       -7.104082 1.6793001 -7.2056227 0.21496426
000250 e5 4d 21 bf 93 ff 2b bd cc 3c 44 3f ce 93 0f c1
       -0.6300948 -0.04199178 0.7665527 -8.973585
000260 db 06 43 40 25 eb 69 c0 ec 9d f3 3e 08 af 74 bf
       3.0472934 -3.654977 0.47581422 -0.95579576
000270 f7 e3 30 bf f8 17 1b 40 2a 7e 25 bf 54 02 85 3d
       -0.69097847 2.423338 -0.64645636 0.06494585
000280 28 d9 1e 40 c2 74 ee bd ea 4f 04 bf 6b ab 53 be
       2.4820042 -0.116433635 -0.5168444 -0.2067086
000290 76 27 77 3f 3a 33 c5 3f 8d 24 96 3e 41 cf 1c c1
       0.9654459 1.5406258 0.2932476 -9.800599
0002a0 c9 2f 85 3f 0a 82 2d c0 f6 81 b0 3f f5 f9 f0 c0
       1.0405208 -2.711062 1.3789661 -7.5305123
0002b0 3c 6f 14 c0 a3 60 86 40 9a 97 53 bf b4 da 32 3e
       -2.3192892 4.1992965 -0.826532 0.17466241
0002c0 fb 19 1d 3d d0 56 88 bf 05 9d 7c 3f 4a bd 0d c0
       0.038354855 -1.0651493 0.9867709 -2.2146783
0002d0 0d ad 9c be 98 c5 4b c0 53 95 d8 3f ca a7 24 be
       -0.30600777 -3.1839352 1.692057 -0.16079631
0002e0 6d 4d d4 c0 e1 a5 ad c0 54 39 87 3f 46 83 d4 c0
       -6.6344514 -5.426499 1.056437 -6.6410246
0002f0 37 ac de bf e9 33 e6 3f 8d e9 98 bd dc 19 1a 3f
       -1.7396306 1.7984592 -0.07466421 0.6019571
000300 1a 50 5f bf 37 8b d4 c0 9c f3 f5 be 0b fa fd bf
       -0.872316 -6.641994 -0.48037422 -1.9841932
000310 40 27 b3 c0 e7 e2 c4 3e a1 b4 02 c1 5f 8a 7b c0
       -5.5985413 0.38454363 -8.169099 -3.9303205
000320 ca 98 69 3f 33 7d 10 40 3f eb 12 bf 4d 99 80 bf
       0.9124876 2.2576416 -0.5739021 -1.0046784
000330 be 8a 8b c0 33 aa 6c 3f 31 d7 c7 3e f6 d4 54 c0
       -4.3606863 0.92447203 0.39031366 -3.325498
000340 d3 a8 9a bf 17 b1 77 be 15 57 48 c0 a8 cc ef c0
       -1.2082771 -0.24188648 -3.130315 -7.4937325
000350 36 97 57 bf 93 8f 56 40 b4 55 3e c0 5a 50 88 40
       -0.84215105 3.352513 -2.973981 4.2598085
000360 92 b7 48 bf 89 98 d3 3e 73 fb 82 3f 4a ea 94 c0
       -0.78405106 0.41327313 1.0232986 -4.6535997
000370 15 c5 0d c0 26 98 b1 3f 48 4f 7c 3e d3 23 4b c0
       -2.215154 1.3874557 0.24639618 -3.1740615
000380 f0 0d 8b c0 c5 09 c7 c0 79 79 fd be 66 1f 79 c0
       -4.3454514 -6.2199426 -0.4950674 -3.8925414
000390 d9 50 44 bf 25 6a 0b bf 94 c7 17 c0 05 35 93 c0
       -0.76685864 -0.5445884 -2.3715563 -4.600222
0003a0 3c 6d d0 bf ad 3f 89 3f fe d2 7e be 6e e5 10 3c
       -1.6283336 1.0722557 -0.24885175 0.008843763
0003b0 27 fd 6b 3f 30 96 e1 3e f3 43 e9 3e 28 7a 1e c0
       0.92183155 0.44059896 0.45559654 -2.4762058
0003c0 1e ef 1d 3f d1 f5 be bf fd 3f 05 c0 fd 4e c9 40
       0.6169299 -1.4918767 -2.0820305 6.290892
0003d0 aa b3 95 3f 69 63 63 c0 1e ac 62 c0 a0 33 6b 40
       1.1695454 -3.5529425 -3.5417552 3.675026
0003e0 ca 6f f7 c0 07 13 03 c0 ef 45 36 bf 50 88 09 bf
       -7.732396 -2.0480363 -0.7120046 -0.5372362
0003f0 d0 84 af 3f f0 3f ea 3f e8 5a 26 bf f1 d5 23 c0
       1.3712406 1.8300762 -0.6498246 -2.559933

eval_net.net.2.bias f4 [256]
000000 be e3 d8 bf f6 3c f0 bf 5a c1 b1 be 1b 70 83 bf
       -1.6944501 -1.8768604 -0.34717828 -1.0268587
000010 32 bf 23 c0 ca 83 02 c0 aa a0 b1 be 7d f1 cd be
       -2.5585446 -2.0392938 -0.3469289 -0.40223303
000020 a0 8e e4 bf 9c 23 95 bf e6 0d 30 c0 0c 5e 22 bf
       -1.7856026 -1.1651492 -2.7508483 -0.63424754
000030 19 0d 10 c0 d5 83 bf bf 05 8e a1 bf 51 c0 0e bf
       -2.2507994 -1.4962107 -1.2621466 -0.557622
000040 aa 25 5c c0 20 68 4c bf 27 5b d8 bf e1 e1 36 bf
       -3.4397988 -0.7984638 -1.6902817 -0.71438414
000050 20 6c 21 bf ff 1b 74 c0 a9 d8 90 c0 0a e1 b0 be
       -0.6305561 -3.8142087 -4.526448 -0.3454669
000060 a1 05 a8 c0 b5 46 39 bf 65 b0 06 c0 79 42 b1 3f
       -5.250687 -0.72373515 -2.1045163 1.3848411
000070 6e 28 29 c0 e5 d2 15 be 82 c4 1e bf 58 2a 86 bf
       -2.6430926 -0.14631231 -0.620186 -1.0481672
000080 8a 81 92 bf 10 80 0d c0 87 1c 03 c0 4f 85 37 c0
       -1.1445782 -2.2109413 -2.0486162 -2.8675115
000090 48 6c 62 be 74 d9 03 c0 24 83 1d c0 34 31 83 c0
       -0.22111619 -2.0601473 -2.4611292 -4.0997562
0000a0 05 b0 53 c0 80 df 95 40 69 e1 1f bf 0d 08 c7 be
       -3.3076184 4.6835327 -0.62453324 -0.3887333
0000b0 07 0c 14 c0 db 69 a5 be e8 20 de 40 29 29 b3 bf
       -2.313234 -0.32307324 6.941517 -1.3996936
0000c0 61 7a 91 c0 9e 52 99 bf 72 ed d0 3f 13 68 3c bf
       -4.546189 -1.1978338 1.6322463 -0.73596305
0000d0 bc 5e fc be e0 80 27 bf 52 f6 b0 bf 0b 6a 16 c0
       -0.49291027 -0.6543102 -1.3825171 -2.3502223
0000e0 dd a5 7c bf ab 80 b5 bf 92 6e d0 be 46 1e 18 c0
       -0.9869059 -1.4179891 -0.40709358 -2.3768477
0000f0 ae 6b 69 c0 c3 82 3c c0 79 59 a7 be b0 9e f4 bf
       -3.6471972 -2.945481 -0.3268545 -1.9110928
000100 8c ba d0 bf ad 80 a5 be be 6f 57 bf 46 6a 0a c0
       -1.630693 -0.32324734 -0.8415488 -2.1627364
000110 57 26 85 c0 b4 ab 0f c0 2e 6b 2c c0 99 cc 2e c0
       -4.16093 -2.244855 -2.6940417 -2.7312376
000120 9e 00 73 c0 d7 1a 52 bf 01 b6 5a bf 65 3f 27 c0
       -3.7969127 -0.82072204 -0.85433966 -2.6132443
000130 99 2a 7b bf 03 b1 27 c0 00 2d 13 c0 20 f2 ed 40
       -0.98111874 -2.620179 -2.2996216 7.4358063
000140 f0 b0 5e bf 2a 03 02 c0 b0 d4 ca be f1 5a ca be
       -0.86988735 -2.031443 -0.39615393 -0.39522508
000150 97 86 05 3d 2d a7 d7 be 49 73 60 bf a1 00 0a c0
       0.032599058 -0.42119732 -0.8767591 -2.1562884
000160 8e 80 b0 bf ce 9e b0 41 77 f5 1c bf 90 dd 3c bf
       -1.3789232 22.077541 -0.6131205 -0.7377558
000170 fb 7a 60 40 a1 fd a2 be 2a f0 0c c0 24 40 77 bf
       3.5075061 -0.31834128 -2.2021585 -0.96582246
000180 65 14 58 bf 81 55 09 c0 f6 3d aa bf 80 d0 af c0
       -0.8440612 -2.1458437 -1.3300159 -5.4942017
000190 b4 fd 23 c0 44 c7 1d c0 4c 3b 54 c0 ef 29 df be
       -2.5623598 -2.4652872 -3.3161192 -0.4358668
0001a0 f6 e0 26 c0 92 f8 aa bf dd ef 08 bf 01 26 03 c0
       -2.6074805 -1.3357108 -0.53491 -2.0491946
0001b0 86 4c 3d c0 0a 15 05 bf 09 50 46 bf 76 ae 5e c0
       -2.9577956 -0.5198523 -0.77465874 -3.4793983
0001c0 0d ad e0 be 1a 03 4e c1 b5 55 fe bf 43 73 60 bf
       -0.43882027 -12.875757 -1.9869906 -0.87675875
0001d0 35 08 a6 bf b6 3f 9d c0 50 e4 22 c0 fb 14 86 bf
       -1.2971255 -4.914027 -2.545185 -1.0475153
0001e0 d9 32 02 c0 6f af 6e c0 5d 65 44 c0 df 05 c6 be
       -2.0343535 -3.7294576 -3.0686867 -0.38676354
0001f0 a4 be a5 c0 62 86 0f c0 e0 c3 f4 bf 1b f1 61 c0
       -5.1795216 -2.242577 -1.9122276 -3.530341
000200 f2 71 99 bf 7c 0e 2c bf d7 7f 5e c0 11 30 81 c0
       -1.1987898 -0.672096 -3.4765527 -4.0371175
000210 45 71 db bf c7 db 42 c0 89 1d 6e bf 29 b4 ce bf
       -1.7143942 -3.0446641 -0.9301382 -1.614873
000220 4d fe 9f bf 42 44 fd be f7 b6 98 bf e5 aa 2d c0
       -1.2499481 -0.4946614 -1.1930836 -2.7135556
000230 a3 ed 51 c0 ce e2 87 bf ed 39 26 bf c5 96 99 c0
       -3.2801292 -1.061609 -0.6493214 -4.7996545
000240 47 6e ea bf e3 f4 05 c0 d6 25 6b c0 a7 9e af be
       -1.8314904 -2.0930717 -3.6741843 -0.3430073
000250 02 23 5a c0 c6 0a c6 be 69 43 12 c0 3f 59 ed bf
       -3.4083867 -0.38680094 -2.2853644 -1.8542861
000260 d8 cd bc c0 6c 50 b0 be f7 c9 34 c0 0c 35 59 bf
       -5.9001274 -0.34436357 -2.824827 -0.8484657
000270 9b 37 40 bf b2 50 c1 be 48 57 bc bf 1d d2 66 c0
       -0.7508485 -0.37756878 -1.4714136 -3.6065743
000280 fa 9f 4c bf 17 50 5c c0 9d 9a 56 c0 b2 a5 c9 bf
       -0.79931605 -3.4423883 -3.3531868 -1.5753691
000290 bd 5e 96 c0 a1 d5 8b bf 0d 9d 58 3f de 50 51 c0
       -4.6990647 -1.0924569 0.8461464 -3.2705607
0002a0 f9 82 86 bf 96 0c 41 c0 81 32 a9 bf 1d d0 7f bf
       -1.050872 -3.0163932 -1.3218538 -0.9992693
0002b0 ba d0 a3 bf 02 1d ab bf 0c 75 84 bf ae 06 04 c0
       -1.2798073 -1.3368227 -1.034822 -2.0629077
0002c0 2c 47 13 c0 fc 12 a1 be f7 db ed bf 04 1f 9b c0
       -2.301219 -0.31459796 -1.8582753 -4.847536
0002d0 b4 0d 3b c0 53 ed 21 c0 13 59 ea bf 41 b5 b5 be
       -2.9227114 -2.5301101 -1.8308433 -0.35489848
0002e0 46 7f 28 40 61 30 2a bf 2d d7 d2 bf d3 d2 b2 bf
       2.6327682 -0.6648007 -1.6471916 -1.3970588
0002f0 be 7a 10 bf 3c 5f bc bf 1d 82 d0 bf ee 45 0e c0
       -0.5643729 -1.4716563 -1.6289707 -2.2230182
000300 11 db f5 bf 27 42 44 bf a2 16 73 bf 4c cf 6c c0
       -1.9207479 -0.7666344 -0.9495641 -3.7001524
000310 b5 ea 17 c0 0e eb 47 bf 21 23 d8 be 3e 92 35 c0
       -2.3737004 -0.7809304 -0.422143 -2.837051
000320 1f 1e 49 bf aa d6 a2 be 70 cd 14 c0 ec b5 b6 bf
       -0.78561586 -0.318044 -2.325039 -1.4274268
000330 30 c1 16 c0 9a ac a1 be 18 86 43 bf a3 40 fa be
       -2.3555412 -0.31576997 -0.76376486 -0.4887744
000340 77 ea ae bf d3 37 24 bf b9 af 1b bf 93 21 d0 be
       -1.3665303 -0.6414768 -0.60815006 -0.40650615
000350 90 c0 3c c0 c0 86 4f bf 5f 08 84 bf 24 dc d3 be
       -2.949253 -0.8106499 -1.0315055 -0.4137889
000360 48 7c 30 c0 43 52 36 bf ca 55 9b bf 2d d2 c1 bf
       -2.7575855 -0.7121927 -1.2135556 -1.5142266
000370 66 8c 0f bf ad 72 4f c0 73 cb e5 bf 56 bd 17 c0
       -0.56073606 -3.2413743 -1.7952713 -2.3709311
000380 04 ab 94 40 d4 65 89 bf 61 ac c5 be c2 fe 2a c0
       4.645876 -1.07342 -0.38608077 -2.6717992
000390 b7 13 a1 bf 70 e0 6e bf 00 0e d3 bf af 24 25 bf
       -1.2584141 -0.93311214 -1.6488647 -0.645091
0003a0 12 e7 ff bf 95 58 01 c0 8e 6a a9 bf f9 00 85 bf
       -1.9992392 -2.0210316 -1.3235643 -1.0390922
0003b0 79 0e 58 bf af e4 8f bf 9a 69 af bf 30 20 09 bf
       -0.84397084 -1.1241664 -1.3704102 -0.5356474
0003c0 21 b2 96 be 8e 7b b8 be 3b 07 00 c0 88 33 c0 bf
       -0.29432777 -0.36031765 -2.0004413 -1.5015726
0003d0 7c 7a a9 be a0 22 ae c0 84 d2 32 bf de a4 53 bf
       -0.3310126 -5.4417267 -0.6985247 -0.8267344
0003e0 8d 9a 2b c0 7c c3 dd be af e3 46 c0 92 f4 8f bf
       -2.681308 -0.43313205 -3.1076467 -1.1246512
0003f0 f9 f9 b5 be 64 bc 29 bf 42 d9 01 c0 e2 32 26 c0
       -0.35542277 -0.66303086 -2.0288854 -2.5968556

eval_net.net.4.weight f4 [4, 256]
000000 78 12 eb be c8 55 2a bf 9b 1c c9 bc 31 6a d8 bd
       -0.45912528 -0.6653714 -0.024549773 -0.105671294
000010 58 2b 89 be ce d2 0a 3f 6e c8 bc bc c2 38 95 be
       -0.2679088 0.5422791 -0.023044791 -0.29144865
000020 0e ed c3 bf 9d fd db 3f a3 8b bd 3f 30 49 69 bb
       -1.5306718 1.7186772 1.4808239 -0.0035596602
000030 98 e2 e4 be 2b ff 2b bf 49 a8 90 3d 08 1b da be
       -0.44704127 -0.6718623 0.07063348 -0.42598748
000040 b7 b1 22 3e 29 17 31 be 82 e4 c5 3e 3e 66 74 3e
       0.15888105 -0.17293991 0.386509 0.23867127
000050 ff 14 0f bc 4d ca 4b be f9 5e 49 3e fa 7c 6b bc
       -0.008733033 -0.1990139 0.19665135 -0.014373058
000060 34 c3 4c 3f a0 00 1c bf f4 35 60 bf bc cc f8 3d
       0.79985356 -0.60938454 -0.87582326 0.12148425
000070 55 5f 15 bf e8 1a 2c bd ee 92 17 bc 02 c8 fe 3d
       -0.5834859 -0.042017847 -0.009251339 0.12440492
000080 06 fa af bd cf 71 04 3f 31 ae bd 3d 6d bc a7 3f
       -0.0859261 0.5173616 0.0926174 1.3104378
000090 9e e8 b0 3e d8 af 02 bf f9 74 08 40 53 d2 16 3f
       0.34552473 -0.51049566 2.1321394 0.5891468
0000a0 f8 c8 9a 3e 29 6e c5 3c 92 1a 01 bc fb 84 36 3d
       0.30231452 0.02410038 -0.00787987 0.044560414
0000b0 8d 65 5f be 50 9a 53 bc 77 15 15 3f 3a bb bb bf
       -0.21816082 -0.012915209 0.5823588 -1.4666512
0000c0 77 a6 c5 3e 20 89 cf be c8 7f d8 3f 45 4d d6 3c
       0.38603565 -0.40534306 1.6913996 0.026159892
0000d0 93 ba ea bd f0 86 8e be 69 76 40 bf 38 05 ab 3e
       -0.114613675 -0.27837324 -0.7518068 0.3340242
0000e0 d1 ac a5 3e 22 5c 40 be 9c 07 e4 bd 53 c6 ab 3e
       0.3235841 -0.18785146 -0.11134264 0.33549747
0000f0 5b 5c 95 be ba f2 9c 3e 6c dd 8a 3e 20 51 8b 3f
       -0.29172024 0.30653936 0.27122056 1.0884132
000100 21 10 43 bf 58 08 f1 3c 62 90 11 3e 48 b6 8a 3f
       -0.76196486 0.029422924 0.14215234 1.0836878
000110 87 b0 41 3e a9 15 a6 3f ce ed be bf 1c 63 95 3e
       0.18914996 1.297536 -1.4916322 0.29177177
000120 a6 ab 05 3e 32 64 52 be fe a4 c5 be e0 19 91 3f
       0.1305376 -0.20546034 -0.38602442 1.1336021
000130 94 8b e8 3f c4 04 e2 3e 70 10 a7 3f 0b 23 70 40
       1.8167596 0.4414426 1.3051891 3.7521389
000140 17 41 16 3f a7 d0 58 3d fb 5f cf bc 96 d7 92 be
       0.5869307 0.05293336 -0.025314322 -0.28680104
000150 3c 77 ea bf aa 45 9f be 38 01 f1 bf 18 76 2f 3f
       -1.8317637 -0.31107837 -1.8828497 0.6853957
000160 0e ea 40 bc 4a c0 9b 3e 72 07 ee bc fa f7 9e be
       -0.011774553 0.30420142 -0.029056285 -0.31048566
000170 54 13 61 3f d3 21 bf bc 31 02 80 3e 2a c1 8f bd
       0.8792012 -0.023331558 0.25001672 -0.07019265
000180 23 72 59 bd 86 8e 64 3f 1e 89 f0 bf e4 d3 3a 3f
       -0.053087365 0.89279974 -1.8791845 0.7297957
000190 15 8b ab 3f 33 d0 e4 3f 20 ff a8 3f 9d 5f ff 3c
       1.340182 1.7876037 1.3202858 0.031173522
0001a0 e6 88 2f bd da 61 c2 bd 40 c1 6a bd 38 30 e2 3f
       -0.042855166 -0.0949132 -0.057313204 1.7670965
0001b0 87 ca 28 3f 1b 08 b2 3e cb c6 68 be 45 d8 90 3f
       0.6593403 0.3477181 -0.22732083 1.1316
0001c0 46 dd 9a 3e b9 95 9b 3e 93 f2 1a bf b3 74 50 3e
       0.30246943 0.30387667 -0.6052639 0.20357017
0001d0 f9 4d d2 bd 09 9b 79 3e 15 c2 f1 bf 6a 77 8d 3f
       -0.10268778 0.24375547 -1.8887354 1.1052067
0001e0 9b 63 29 bf e8 2b 67 3f c0 31 aa 3e c4 99 93 be
       -0.6616761 0.9030137 0.3324108 -0.2882825
0001f0 e1 e7 b9 3e 4e 25 91 3f 99 e2 5f bf fb bc a3 3f
       0.36309722 1.133951 -0.87455136 1.2792047
000200 b8 74 28 bf 3f e8 09 bd e4 5d 32 3f 75 63 49 3f
       -0.658031 -0.033668753 0.69674516 0.78667384
000210 52 8e 22 bf 4c db c0 bf e2 08 2a 3e 25 5a 53 3e
       -0.63498414 -1.5066924 0.16604951 0.20639856
000220 ba 3a 8b bf 49 ef b8 3e c3 90 d6 3e fb 65 a9 3d
       -1.0877297 0.3612006 0.4190732 0.08271404
000230 1f ce cc 3f 10 7a 51 be 0f 87 f4 3e cd 1e 86 3e
       1.6000403 -0.2045672 0.47759292 0.26195374
000240 77 c5 c9 3f 1c e9 bc 3f db 52 8b bf d9 22 95 be
       1.5763386 1.4758639 -1.088466 -0.2912815
000250 18 52 74 3e 76 0a 8a 3e f4 fe 73 3f e7 ab 89 3e
       0.23859441 0.26961106 0.953109 0.26888964
000260 87 09 b1 3e f4 3f 24 3c fd 36 b4 3e 6f 61 50 3e
       0.3457758 0.010025013 0.35198203 0.20349668
000270 01 dd 5f be c5 84 6f 3d 6b 63 b7 3f c1 d6 ca 3f
       -0.2186165 0.05847623 1.4327215 1.5846788
000280 80 03 b1 3c 39 5b 1b 40 e6 2f 3f 40 ba c1 1c 3e
       0.021608114 2.4274428 2.9872985 0.15308276
000290 4a fb 0f bd 61 72 d3 be 0f 12 c4 3f f9 a5 93 3a
       -0.035151757 -0.41298202 1.5318011 0.0011264674
0002a0 b4 3c 0a 3f f8 22 e1 3f 63 5c 2a be 88 99 28 be
       0.53998876 1.7588797 -0.16636805 -0.16464818
0002b0 43 6d 39 bf cd 8b 9e 3d f4 1d da 3e 7c b8 9c 3f
       -0.72432345 0.07741509 0.42600977 1.22438
0002c0 0c 76 d6 bf 68 e7 a2 bd 11 80 39 be e8 ba 0e 40
       -1.6754775 -0.079542935 -0.1811526 2.2301579
0002d0 fd 0b d4 3e 6e 75 35 3e 42 e3 f7 be 63 b1 8e 3a
       0.41415396 0.17720577 -0.4841557 0.0010886606
0002e0 c9 41 10 40 14 16 9f 3e d7 3b 2c 3f d9 f0 95 bd
       2.2540152 0.31071532 0.6727881 -0.07321329
0002f0 e6 59 58 3e 75 e0 b1 3d ea 79 ae be 7e 01 fa 3e
       0.21128044 0.0868539 -0.34077388 0.48829263
000300 f7 81 ee 3f 76 8a 73 3e d2 99 e8 3d 4b ab ca 3e
       1.8633412 0.23783287 0.11357464 0.3958381
000310 25 10 82 3e 7d 40 c0 3e 94 ff 80 bd d1 c5 1d 40
       0.25402942 0.375492 -0.06298748 2.4651988
000320 60 51 ef 3e 41 b5 b9 bc 4c 11 84 3f 48 ea 40 3e
       0.46741772 -0.022669436 1.0317779 0.18839371
000330 5f 09 3b 3f 4a c4 8d 3c 1d 3b 68 bf 26 c5 a2 be
       0.73061174 0.017305512 -0.907152 -0.31791037
000340 23 54 13 3e 54 09 a0 be 0b 4b 9f 3e b5 df a1 3e
       0.14387564 -0.31257117 0.3111194 0.31615987
000350 a7 f9 9a 3f c6 79 d8 3e a8 a5 6a be 90 d8 43 3d
       1.2107438 0.42280406 -0.22914755 0.047813952
000360 70 e8 f5 3f f3 55 8d bb e2 2a d0 bf c9 6e 8c 3d
       1.9211559 -0.0043132245 -1.6263087 0.06857068
000370 dd 57 94 3b 01 6c eb bd 81 7e d3 bd 03 f7 a3 3e
       0.0045270757 -0.114952095 -0.10326863 0.32024392
000380 8a 56 e9 3e b0 76 be 3e 9f 23 cb 3c 04 4c 21 be
       0.45573837 0.37199926 0.024797259 -0.15751654
000390 b4 7b 30 3e aa f0 65 be a4 c3 79 3e f0 03 37 bd
       0.17234689 -0.22455087 0.24391037 -0.04468149
0003a0 e3 1d 43 3f d5 27 39 bf 34 8c 60 bd f8 32 de 3d
       0.7621748 -0.72326404 -0.054821208 0.10849565
0003b0 95 49 d0 bf ef 56 02 bf eb ff 32 3f 07 b2 b8 3d
       -1.6272455 -0.509139 0.6992175 0.09018331
0003c0 0c 69 05 40 43 d9 97 3e d1 ff 87 3f 2a cc 6c be
       2.0845366 0.29657945 1.0624944 -0.23124757
0003d0 f6 5e 19 bd 03 92 26 3e a7 5e c8 be 33 a4 78 3e
       -0.037444077 0.16266637 -0.39134714 0.24281387
0003e0 53 2b 78 3e 75 a0 7f be d1 e1 2e 40 0f e3 bf 3f
       0.24235277 -0.24963553 2.7325327 1.4991168
0003f0 59 8b 90 3e cb 5a 43 3e e8 9a 26 3e 33 7f 24 3f
       0.28231314 0.19077604 0.1627003 0.6425659

eval_net.net.4.bias f4 [4]
000000 db 84 7b c3 de af 7c c3 3f 04 80 c3 bf 45 7c c3
       -251.51897 -252.68698 -256.03317 -252.27245

target_net.net.0.weight f4 [256, 8]
000000 f7 b6 85 be 52 c6 f7 c0 01 25 c5 3f 52 4e 6d 40
       -0.26116154 -7.742959 1.5401918 3.7079053
000010 0f 8f d1 bf a8 8a a5 3f df b8 1f c1 54 4b d9 bf
       -1.6371783 1.293294 -9.982635 -1.6976113
000020 27 d3 3f c1 dd 8b 0e 40 f3 51 8f c1 7e 54 39 41
       -11.989051 2.2272866 -17.915014 11.583128
000030 ca 5c a3 c1 0e aa ef 40 d3 cf 4c bf ec f9 04 c1
       -20.420307 7.4895086 -0.80004615 -8.311016
000040 f4 dc 8e bf 36 1d 06 c1 9d 98 dd 3f 61 1d 77 40
       -1.116118 -8.382132 1.7312199 3.8611681
000050 49 27 80 3f 08 8d 82 bf 0c 69 74 c0 c3 d0 24 c0
       1.0011989 -1.0199289 -3.8189116 -2.5752418
000060 ba 2e 88 c1 ad f8 97 bf c6 74 2b c1 1c cb 32 be
       -17.022816 -1.1872765 -10.716009 -0.17460293
000070 5d 77 e9 40 4c c3 61 c0 d8 f4 18 be 80 44 c4 c1
       7.2958207 -3.527545 -0.1493715 -24.533447
000080 ec c1 12 40 b2 c5 86 3f 9d aa 9c c0 f4 4f 59 c0
       2.293086 1.0529082 -4.895827 -3.395505
000090 8a 6b ad 41 7c f3 db c0 4b 16 59 c0 c7 7b e3 c1
       21.67751 -6.873472 -3.3919857 -28.435438
0000a0 d5 a8 5a bf 58 0c fd bf aa 53 8c bf 9d 1c 06 40
       -0.8541387 -1.9769392 -1.0963032 2.0954964
0000b0 79 aa ed be 1f 2c e8 be 50 c8 18 c0 b4 59 13 c0
       -0.46419123 -0.45346162 -2.387226 -2.30235
0000c0 f6 82 22 41 ff 4f 89 c1 03 36 8c c0 60 12 e1 c0
       10.156973 -17.16406 -4.381593 -7.033493
0000d0 f7 dd 76 c1 e1 c3 85 40 20 2b 03 c0 55 db 8b c1
       -15.429191 4.180161 -2.0495071 -17.482096
0000e0 e3 0a 3c c0 a5 7d ec bf fd b5 bb c0 86 11 4b c0
       -2.9381645 -1.8475844 -5.8659654 -3.1729445
0000f0 fa e6 4d 41 4e 2f 4a 41 2f d8 98 c1 b7 b4 05 c1
       12.868891 12.636549 -19.105558 -8.35662
000100 00 5a 1f c1 a0 57 a9 bf 70 f8 48 41 d4 4a 71 40
       -9.959473 -1.3229866 12.560654 3.7701921
000110 c2 6b 8f c1 be cb f5 c0 0e a8 a6 c1 c2 08 ea 41
       -17.927616 -7.681121 -20.832058 29.254276
000120 b7 15 81 41 73 35 ec 40 84 9a 43 40 2b 07 dc 3f
       16.135603 7.3815246 3.056306 1.7189687
000130 df c4 0d c0 e4 3e ff be d9 08 2a c0 6e f6 0b c1
       -2.215141 -0.4985267 -2.65679 -8.7476635
000140 70 82 18 40 b3 18 8d c1 bd d7 92 c0 01 74 47 41
       2.3829613 -17.63706 -4.5888352 12.465821
000150 57 27 51 40 5f b1 ac bf e4 31 d7 bf a6 d7 24 c0
       3.268026 -1.3491629 -1.68121 -2.5756621
000160 eb 05 ae 40 8d 97 a3 3f ad 6f 04 bf c1 89 72 40
       5.4382224 1.2780625 -0.51732904 3.7896578
000170 9c 1d 40 41 3d b6 5c 41 02 8c 76 c1 2b dd a6 c0
       12.007229 13.794492 -15.409182 -5.214498
000180 28 65 14 40 d6 ed 3a c1 fe 33 bb bf bb 8a d8 3f
       2.318674 -11.683065 -1.4625242 1.6917337
000190 18 9e c3 be 39 07 af 3e fb e2 02 c0 8b 3d 94 c0
       -0.38206553 0.34185198 -2.0451038 -4.6325126
0001a0 eb b4 12 c1 4f 4b 10 c1 25 84 b1 c1 58 04 e7 40
       -9.169169 -9.018386 -22.189524 7.2192802
0001b0 32 ff 0b c1 01 72 c7 c0 d2 9b 6e 41 c3 3d 14 c1
       -8.749804 -6.2326665 14.913042 -9.265079
0001c0 e2 33 9c c1 9f 18 41 c1 9f 49 6c c0 16 0c c5 c0
       -19.525333 -12.068511 -3.6919935 -6.1577253
0001d0 5e 28 98 c0 b5 df c8 bf 9e ad 79 40 89 84 44 41
       -4.7549276 -1.569327 3.9012218 12.282357
0001e0 78 32 49 40 77 12 8c 3f 53 c7 c6 c0 9c 44 d5 40
       3.1437054 1.0943135 -6.2118316 6.664625
0001f0 92 80 d9 c1 83 b1 52 c1 85 54 b2 3a 96 be 01 42
       -27.187778 -13.168338 0.0013605511 32.43612
000200 84 62 09 c1 bf 2b 2a c0 3d 0c 4f c1 43 e8 12 c1
       -8.586552 -2.65892 -12.940488 -9.1817045
000210 7f f5 eb c0 c0 d4 1b bf ea a2 3c c1 d6 d8 1c c1
       -7.373718 -0.60871506 -11.789774 -9.802938
000220 12 e4 d7 bf 78 90 c9 c0 69 f2 b5 bf 41 92 31 c0
       -1.6866477 -6.2988853 -1.4214603 -2.7745516
000230 31 84 1a 41 4a e4 04 41 d9 2d 45 c1 94 af 36 c1
       9.657273 8.305735 -12.323693 -11.417866
000240 ba 97 15 c1 d0 ad bf 3f c0 cd 37 40 39 fe 92 3f
       -9.349543 1.4974918 2.871933 1.1483833
000250 b7 5d fe 40 13 a5 d0 40 6d 72 18 c1 52 58 03 41
       7.94894 6.5201507 -9.527936 8.209063
000260 cd 85 89 c0 8e 52 17 c0 0b 68 b7 40 bf 25 ce 3f
       -4.297583 -2.3644137 5.7314506 1.6105269
000270 0f 2a 27 c1 fc f5 99 c1 48 08 0b 3f 94 d6 2c 41
       -10.447768 -19.24511 0.5430951 10.802387
000280 40 28 c0 3e 65 3c 20 c0 39 e9 e9 be f2 8f 2d 3f
       0.37530708 -2.5036862 -0.45685747 0.6779777
000290 ef df 77 bc 5e e5 8b be 03 58 89 3e 8f 34 aa be
       -0.0151290735 -0.2732343 0.2682496 -0.33243224
0002a0 27 4f 30 c1 94 f5 54 c1 9f fe 49 41 7e 83 35 41
       -11.019324 -13.309956 12.624663 11.344603
0002b0 31 d8 9e c0 25 5e f3 41 5f e0 25 be cc 42 99 c1
       -4.9638906 30.420969 -0.16198872 -19.157616
0002c0 ed c3 0d 40 b2 65 35 40 0c c0 5a 40 2f fb 4f 40
       2.2150834 2.834332 3.4179716 3.249706
0002d0 06 6d 46 c2 28 60 33 c1 33 21 81 3f 87 e0 d7 c0
       -49.60647 -11.210976 1.0088257 -6.746158
0002e0 7a ac 73 40 b8 3f 12 c1 63 89 c7 40 fb 5e a8 40
       3.8074021 -9.140556 6.235521 5.2615943
0002f0 18 8d 00 c1 2a 07 03 3f 0f b1 ba 40 79 03 93 c0
       -8.034447 0.51182806 5.8341136 -4.594174
000300 9a 4b d0 3f 23 f1 14 c1 c5 0b 01 3f ab 7f 95 3f
       1.6273072 -9.308871 0.50408584 1.1679586
000310 6c 16 de c0 8e 9c 3f c1 c9 bf bf c1 ca 31 2a 40
       -6.940237 -11.975721 -23.968645 2.659289
000320 f9 a9 24 bf ed 38 56 c1 12 35 c5 c1 cc 36 d4 40
       -0.6432186 -13.388898 -24.650913 6.631689
000330 9a 51 17 c1 df e5 9b c1 f8 0d 11 40 ad c2 92 41
       -9.457422 -19.487242 2.2664776 18.345057
000340 3b b4 8e 3e af f0 8b c0 0a 7d 11 3f fe 9b b5 3f
       0.2787188 -4.3731303 0.5683142 1.418823
000350 3d 24 51 be 39 52 0b 3d 7c df 81 3c 4c 81 0e 3f
       -0.2042398 0.03401396 0.015853636 0.5566604
000360 49 02 44 40 cf 48 90 40 25 d3 16 41 9b ac 05 c1
       3.0626395 4.508888 9.426549 -8.35464
000370 c6 5f d5 41 fa 97 ed c0 99 77 86 c1 30 0e 29 c1
       26.671764 -7.424802 -16.808397 -10.565964
000380 d5 d0 d9 c0 95 0a 78 3e 1a b7 9b c0 87 2b d2 40
       -6.806742 0.24222787 -4.8661013 6.5678134
000390 f8 8a 30 bf bb c4 13 c0 a4 fa 85 c0 1a 9e df 3e
       -0.6896205 -2.3088825 -4.186846 0.4367531
0003a0 d4 d7 0c 40 df 05 51 bf b2 b1 8f c0 ed 13 8f c0
       2.200673 -0.81649584 -4.4904413 -4.4711823
0003b0 20 c4 75 41 ab 56 be c0 17 3d 8f 40 20 a1 3e c0
       15.360382 -5.9480796 4.4762073 -2.9785843
0003c0 77 33 20 41 a0 c2 e7 c0 27 b9 91 bf af 37 bd c0
       10.012565 -7.242508 -1.1384629 -5.9130473
0003d0 52 ee f4 c0 52 71 6a 3f 3d 2e b5 c1 21 e3 ab 40
       -7.654092 0.91579163 -22.647577 5.3714757
0003e0 9b 60 0a 3f 8a 7a 34 c1 93 85 a9 3d dd 9c e4 3f
       0.5405366 -11.279917 0.082774304 1.7860371
0003f0 fd 80 0d 3f 20 e1 ae be 79 fc 4d c0 94 b9 97 be
       0.55274945 -0.34156132 -3.2185347 -0.29633772

target_net.net.0.bias f4 [256]
000000 96 42 e5 c0 43 46 b7 c1 50 1f ce c0 38 8c 98 c0
       -7.164378 -22.909307 -6.4413223 -4.7671165
000010 bb 0c 3b c1 9b d8 44 c0 ea 7d 1e 40 79 f3 ba bf
       -11.690608 -3.0757205 2.4764352 -1.4605552
000020 3d 7e 58 3e 60 fe 89 c1 0b 14 2d c1 50 d1 03 c1
       0.21141906 -17.249207 -10.817393 -8.238602
000030 40 37 b7 c0 43 7e 04 c1 92 22 dd 40 54 d6 fb bf
       -5.7254944 -8.280826 6.91047 -1.9674783
000040 1b 80 56 40 0d cd e6 c0 5f 6d 8e c0 ae 66 8d c0
       3.351569 -7.2125306 -4.450851 -4.418784
000050 52 72 4c c0 e2 96 4a c1 17 23 4c c0 cd e2 c5 c0
       -3.1944776 -12.661837 -3.1896417 -6.1839356
000060 ff 30 5a c1 dc ba 3d c0 d3 a8 5f c0 a8 00 58 c1
       -13.636962 -2.96453 -3.4946792 -13.50016
000070 8b e7 4b c1 f9 ad b8 c0 16 ac 4f c0 05 fa 84 c0
       -12.744029 -5.771237 -3.2448783 -4.15552
000080 fb 93 00 c0 ae 5c 49 c0 ac a5 5b c1 b8 f6 95 c0
       -2.009032 -3.1462817 -13.727947 -4.686367
000090 9b 0d 07 41 dc bc 5c bf b2 5f cf c0 f9 11 13 c1
       8.440822 -0.86225677 -6.4804316 -9.191888
0000a0 7b ac 1d c1 f2 93 95 c0 75 47 08 c0 71 c7 11 c0
       -9.8546095 -4.6743097 -2.1293614 -2.277798
0000b0 45 24 80 c0 3e 05 6a c0 9a e8 9f bf ae 17 08 bf
       -4.0044274 -3.65657 -1.2492859 -0.5316113
0000c0 a9 e7 41 41 8a f8 ab 40 1f 34 8b c0 d3 65 b6 c1
       12.119058 5.3740892 -4.3501124 -22.799719
0000d0 29 0a f1 c0 6f 88 9c c0 9a 0f 53 c1 57 66 25 c0
       -7.5324903 -4.8916545 -13.191309 -2.5843713
0000e0 71 cb 3b c1 bc f2 d0 c1 f0 71 fd c0 bc 7a 4b c0
       -11.737168 -26.118523 -7.9201584 -3.179366
0000f0 57 c3 6a 3f 10 b9 d6 41 c3 e6 64 c1 ab dd cf c0
       0.91704315 26.840363 -14.306338 -6.495809
000100 13 e5 32 3e 1c e4 98 3d d5 dd e8 c0 67 02 df c0
       0.17470197 0.074653834 -7.277079 -6.9690433
000110 94 04 e6 c0 b1 c9 59 c0 a9 27 f9 bf 57 26 e0 c0
       -7.188059 -3.4029353 -1.9465228 -7.00468
000120 50 d0 22 c1 15 de ea c0 e9 5c 8a c0 fc 8d 70 c1
       -10.175858 -7.3396096 -4.3238416 -15.034664
000130 b9 b8 86 40 f7 e4 20 41 10 9c 6c c0 81 69 90 c0
       4.210049 10.0559 -3.6970253 -4.512879
000140 4a e3 64 c1 e4 09 a8 bf 18 db 6e c0 a0 b8 d6 c0
       -14.3054905 -1.3128018 -3.7321224 -6.710037
000150 b6 90 6a c0 87 75 3e c1 96 24 9b c1 82 cb cc c0
       -3.6650825 -11.903693 -19.392864 -6.3998423
000160 94 0e 39 c1 b4 7a 2e 41 02 72 37 c0 97 02 05 c1
       -11.566059 10.904957 -2.8663335 -8.313132
000170 a2 cc 48 40 af ba 60 c1 e1 55 e9 40 65 c8 e7 3e
       3.1374898 -14.045577 7.2917333 0.45270076
000180 dc d3 99 41 de e3 02 c1 09 8a 71 40 e5 a5 c4 bf
       19.228447 -8.180632 3.77405 -1.5363127
000190 87 00 fb 40 df e5 98 3f 9e 38 2f c1 4a d4 31 c0
       7.8438144 1.1945151 -10.951323 -2.778582
0001a0 04 97 4b c0 e2 4c ff bf b2 a2 1d c1 e5 db c5 c0
       -3.1810923 -1.9945338 -9.852221 -6.1830926
0001b0 03 8e 85 c0 f0 2d 34 c0 04 0a c1 40 43 e1 48 c1
       -4.1735854 -2.8153038 6.0324726 -12.554996
0001c0 08 4c c2 c0 d6 0f 89 c1 be 21 ae c0 20 7b 38 c0
       -6.071781 -17.132732 -5.441619 -2.882515
0001d0 96 d5 81 c1 13 33 4b 41 c3 25 49 41 5d b2 96 c0
       -16.22929 12.699969 12.571719 -4.709273
0001e0 93 f0 34 c1 52 05 61 3f 37 3b 86 bf 52 09 39 c1
       -11.308734 0.87898743 -1.0486821 -11.564775
0001f0 f2 04 64 c0 49 e2 e0 c0 19 48 4a c1 7f e5 e8 bf
       -3.5628018 -7.0276227 -12.642602 -1.8195037
000200 94 82 86 c0 6e a9 58 c1 63 b8 a5 c0 e2 79 cc 40
       -4.2034397 -13.541365 -5.178758 6.3898783
000210 a2 2d 85 3f b3 d3 47 40 6a eb 80 c0 a1 15 8a c0
       1.0404551 3.122296 -4.028737 -4.3151402
000220 eb 8c a3 c0 bf 35 21 c0 49 70 11 c0 a9 6e 3b be
       -5.110952 -2.5189054 -2.2724783 -0.18303932
000230 f4 6c af c0 f7 20 8c c0 02 c1 cb c0 15 9c 6e c0
       -5.48205 -4.379024 -6.3673105 -3.7282765
000240 6b 26 e9 40 36 ea 08 c0 37 24 80 41 6b 48 6f c1
       7.2859397 -2.139295 16.017683 -14.95518
000250 37 32 e5 c0 92 fa 97 c1 d8 7d f0 c0 7e 44 e5 c0
       -7.1623797 -18.997349 -7.515362 -7.164611
000260 a6 6e 44 c1 f6 74 13 40 6a 29 75 c0 33 91 0f c1
       -12.277014 2.3040137 -3.8306527 -8.972949
000270 11 0d 9f c0 40 82 1e c1 a4 8b f8 bf 2e d5 1b c0
       -4.970345 -9.906799 -1.9417615 -2.4348865
000280 a7 43 5a c1 ee 7e 02 c0 f4 2d 9d c0 3d 8b 49 41
       -13.641517 -2.0389972 -4.9118595 12.596494
000290 1a 59 84 c1 05 bd ca c0 1d 34 5d c0 da b9 5a bf
       -16.543507 -6.3355737 -3.4563057 -0.85439837
0002a0 a9 24 83 40 d9 7e b2 c0 ed d7 95 40 b2 5b 0b c1
       4.098225 -5.5779843 4.682608 -8.709887
0002b0 58 23 88 41 fd 25 32 c1 56 8c 09 40 9c 31 dc bf
       17.017258 -11.1342745 2.1491904 -1.720264
0002c0 d8 94 8e c0 74 5d 17 41 c7 33 8b 3e 91 09 aa 40
       -4.4556694 9.460316 0.2718794 5.313668
0002d0 d9 14 ca c0 a7 7e df be 54 7f 8a c1 e5 a5 8f c1
       -6.315045 -0.43651316 -17.312172 -17.956003
0002e0 87 c0 04 41 16 56 db be 14 75 37 c1 da e2 25 41
       8.297004 -0.42839116 -11.466084 10.367884
0002f0 86 f7 aa c0 06 ca 73 c0 ab a0 f0 c0 72 1b 31 c0
       -5.3427153 -3.8092055 -7.519613 -2.7673001
000300 86 dc 59 41 15 a6 13 41 8d 8f 1a c0 ae c7 01 c1
       13.616339 9.228047 -2.4150116 -8.11125
000310 38 6f ec 40 95 8e ad bf b3 90 32 c1 4e 4d 41 c1
       7.3885765 -1.3559138 -11.160327 -12.081373
000320 9d 20 95 40 ae 50 b5 c0 6d 0f 82 c0 35 6f 21 40
       4.660231 -5.6660986 -4.064383 2.5224125
000330 dc ff c4 c0 c3 05 2b c0 52 84 e0 bf 8c 45 b6 c0
       -6.156233 -2.6722267 -1.7540381 -5.6959896
000340 18 fb 69 40 87 ad a7 c0 cd 65 18 c1 28 a4 ec 40
       3.6559505 -5.2399325 -9.524854 7.3950386
000350 36 33 5d c1 2f a7 57 c1 2e f8 f3 c0 44 0f 2b 41
       -13.825003 -13.478316 -7.6240454 10.691227
000360 7e 84 f5 c0 8e 43 92 40 35 9d e1 c0 6c be 24 41
       -7.6724234 4.5707464 -7.0504403 10.29649
000370 8b 92 39 40 7f 2f e1 c0 1c d0 1f c1 7e a6 a9 c0
       2.8995693 -7.037048 -9.988308 -5.3015738
000380 b1 5f 13 3f a5 30 30 41 d5 3d 42 40 1a fa 4b 41
       0.5756789 11.011876 3.035024 12.74856
000390 b3 77 09 c0 8e 2c 57 c1 3e 09 7e c1 17 13 20 bf
       -2.1479309 -13.448378 -15.877256 -0.6252913
0003a0 16 0e 0e c1 c1 36 5b c0 ee ac 8a c0 df e7 6f c0
       -8.878439 -3.425217 -4.3336096 -3.7485273
0003b0 63 7a b0 c1 5a f4 1b c1 05 c9 01 c1 ee ba 9d c1
       -22.05976 -9.747156 -8.111577 -19.716274
0003c0 06 46 44 41 53 0e 33 c1 15 0c 6d 40 42 a9 79 c1
       12.267096 -11.190997 3.7038624 -15.603823
0003d0 df ad 89 c0 91 f0 64 41 90 95 3c c1 0d e0 dc c0
       -4.3024745 14.308732 -11.786514 -6.90235
0003e0 82 97 2f c1 8e 40 03 41 67 94 68 c1 de 69 82 c1
       -10.974489 8.20326 -14.536231 -16.301693
0003f0 fa d2 60 c0 af 54 f6 c0 36 6d 42 c0 e4 32 ed 40
       -3.512877 -7.6978374 -3.0379157 7.412462
