DQN/DQN_Naive.pth (torch, 279388 bytes, 6 tensors)

eval_net.net.0.weight f4 [256, 8]
000000 0e 00 59 c0 4a c9 3d bf 7a 16 80 3f 1e 86 26 40
       -3.3906283 -0.7413527 1.0006859 2.6019359
000010 b7 a5 b6 be 64 49 5b be 20 0e bf be 04 99 10 c0
       -0.35673305 -0.21414715 -0.37315464 -2.2593393
000020 6d 1f ef 3e 40 25 8a bf 79 3a 82 3d 5b d2 8c 3f
       0.46703663 -1.0792618 0.06358809 1.1001695
000030 af de 1c 3d e5 55 8d 3d c4 72 16 bd 5c cc 32 bf
       0.038298305 0.06901149 -0.036730543 -0.6984308
000040 30 28 10 3e a6 85 85 c0 6b 5d cf 3e 97 d7 ca 40
       0.1407783 -4.1725645 0.4050096 6.338817
000050 41 81 94 bd 00 02 6e bd 74 fe 82 bf 0d ee 29 c0
       -0.07251216 -0.058107376 -1.0233903 -2.6551545
000060 9e 29 92 c0 54 a4 a8 c1 92 8e 4a 3f 52 da b1 40
       -4.56758 -21.080238 0.79123795 5.5579004
000070 dd 8e 85 be c8 be a5 bd e4 13 39 c0 df f6 81 c0
       -0.2608556 -0.08093029 -2.891839 -4.0613856
000080 36 24 93 bf a0 5c 9e bf bf 82 2b bf d5 50 37 40
       -1.1495426 -1.2372017 -0.6699638 2.8643086
000090 7f 40 4f bd 8f e2 17 3e 4c 27 31 bf 2f db eb bf
       -0.050598618 0.14832519 -0.6920059 -1.8426265
0000a0 df 6c e1 be da ce e0 bf 99 6b 80 be 29 48 b4 3f
       -0.44028375 -1.7563126 -0.2508209 1.4084522
0000b0 27 13 6b 3c f6 d0 22 be d6 e1 b5 be 3d 50 b3 bf
       0.014347828 -0.15900025 -0.35523862 -1.4008862
0000c0 f5 4d 02 3f 1f 3c 25 c0 d1 10 4c bf f0 21 d0 3f
       0.50900203 -2.5817945 -0.7971316 1.6260357
0000d0 52 e9 41 3c ae e9 ca bd 0f a7 16 bf c2 83 80 bf
       0.011835413 -0.09907852 -0.5884866 -1.0040209
0000e0 d4 6f 9b be 58 b2 e6 bf da 9b 3e 3c 66 7d e7 3f
       -0.30358756 -1.8023176 0.011633838 1.8085144
0000f0 f4 67 0d 3c 8a e1 01 3e e1 87 1b bf d9 bd ac bf
       0.008630741 0.12683693 -0.6075421 -1.3495437
000100 63 44 32 be 19 1f 04 c0 66 f5 c7 3e 8a 41 53 40
       -0.174089 -2.064398 0.39054412 3.3008752
000110 ff 8a 93 bd 64 5e dc 3d 9a bd 85 bf c8 e6 c9 bf
       -0.07204246 0.10760191 -1.0448487 -1.5773554
000120 82 67 04 bf a9 c8 fc be 8b 3b 16 bd f4 fb 4a 3f
       -0.5172044 -0.49371842 -0.03667788 0.792907
000130 2c 6f a2 3c 41 93 22 bd 44 48 c2 be b1 c6 4a bf
       0.019828402 -0.039691214 -0.3794576 -0.7920943
000140 ae 04 bf 3e e7 61 a3 c0 c1 3e 9e 3f f7 b8 a6 40
       0.37308258 -5.105701 1.2362901 5.2100787
000150 34 e9 9c bd 1f b8 d5 3e 40 d6 4e c0 f0 ff e4 3f
       -0.076616675 0.41742036 -3.2318268 1.7890606
000160 64 84 8f bf 03 51 f5 bf e3 f1 16 bf 11 88 62 40
       -1.1212277 -1.9165348 -0.5896284 3.5395548
000170 0a 77 aa 3c 0a fb be bd 64 35 fa bf 4b 88 8e bf
       0.020808715 -0.09325226 -1.9547544 -1.1135343
000180 24 fe 28 be 40 f1 c5 bf ce 61 86 3e a0 f4 56 40
       -0.16503197 -1.5464249 0.26246494 3.3586807
000190 06 3a 37 bd b7 03 31 be 6b 3c c7 bf aa 37 bf bf
       -0.04473307 -0.17286573 -1.5565313 -1.4938862
0001a0 4b 11 30 40 20 4b 7e c0 e7 5d 7d bf e7 db ae 40
       2.7510555 -3.9733353 -0.9897141 5.4643435
0001b0 4d fb 61 be 4b 5e 4a be 45 7c f6 3e 68 c9 92 3f
       -0.2206852 -0.19762532 0.48141685 1.1467714
0001c0 d7 69 f3 3f 9c f0 6c bf c5 04 9b bf bd 25 a7 3f
       1.9016675 -0.9255464 -1.211083 1.3058392
0001d0 c7 7b f2 3c e8 d0 34 3e 5f ab 2f 3f 7f 97 88 bf
       0.029600037 0.17657816 0.68620867 -1.0671233
0001e0 4f a3 c1 3e 46 fe 65 c0 02 f6 b0 be 81 62 66 40
       0.37819907 -3.5936446 -0.3456269 3.5997622
0001f0 cb fb f2 bc 12 f6 e4 3d 7b c2 de bf 40 d7 6b be
       -0.02966108 0.11179747 -1.7403101 -0.2303133
000200 94 cb 15 be 87 e3 2d c0 20 e7 1b 3f 69 3a fd 40
       -0.1462844 -2.7170122 0.60899544 7.91338
000210 9b 06 8f 3e 2d 37 e9 be bc 79 ba bf f2 c2 7f bf
       0.27934727 -0.45549908 -1.45684 -0.9990684
000220 a3 5b bf 3f e5 3d b1 c0 de 50 58 bf fd a5 7c 40
       1.494984 -5.5388055 -0.84498394 3.9476311
000230 c6 fd 76 be 11 55 d8 be b3 59 5e c0 fe f5 e1 bf
       -0.24120244 -0.422524 -3.4742248 -1.7653196
000240 67 ac 8e be 65 bc d3 bf 22 af 46 bc db 84 9d 3f
       -0.27865908 -1.6541868 -0.012126716 1.2306169
000250 fd 31 a7 ba d8 2d cd bd 8b 0c c5 be d4 34 2f bf
       -0.0012755987 -0.100185096 -0.38486132 -0.68439984
000260 c9 da aa bf c8 bf 36 c0 83 f7 06 c0 f4 c0 8d 40
       -1.3348018 -2.8554554 -2.108857 4.429804
000270 ab 42 62 3e ce 64 a4 bf ec 11 17 c0 fe 74 bb 3e
       0.22095744 -1.2843263 -2.3604689 0.36612695
000280 1b 4c 15 3e 53 18 69 bd f1 07 01 c0 31 45 7b 40
       0.14579813 -0.056907963 -2.0161097 3.926098
000290 26 37 23 bf 3d 12 01 bc 8b e5 5b be f3 cf fb c0
       -0.63756025 -0.0078778835 -0.21474282 -7.8691344
0002a0 81 9a 28 c0 5d 6c b8 c0 c0 56 96 3e 6a 80 8b 40
       -2.6344302 -5.763228 0.2936306 4.3594255
0002b0 a8 47 93 be 17 e3 0b 3e 02 1f 64 3f 8d 7b 19 c0
       -0.28765607 0.13660847 0.89109814 -2.398166
0002c0 78 92 05 40 8b bd 04 c0 f6 0f a7 bf 41 64 f2 3f
       2.0870647 -2.0740688 -1.3051746 1.8936845
0002d0 76 18 d4 3d 02 84 20 3e 8c 48 7d be ae b3 3a bd
       0.10356228 0.15675357 -0.24734706 -0.045581512
0002e0 af 91 07 3f 9f c5 ff bf 34 2b 73 be 14 0e 90 40
       0.5295667 -1.9982184 -0.2374695 4.5017185
0002f0 b2 6b 8b be 2b 13 c8 3c 54 a9 69 bf 4e 47 8b bf
       -0.27230603 0.024423202 -0.91274 -1.0881135
000300 82 bb f2 bf c3 ce a7 c0 5b 67 1a 40 e6 b4 cc 40
       -1.8963473 -5.2439895 2.4125583 6.3970823
000310 07 58 9c be ed 0c da 3d 9c e0 c1 bf 6e 14 8e 40
       -0.3053591 0.10646997 -1.514667 4.439994
000320 98 09 3f 3f 9f 32 20 c0 fe 38 65 bf f7 ef 6d 40
       0.74624014 -2.5030897 -0.8954009 3.7177713
000330 6a d7 31 3e 91 b0 a1 bc 78 76 23 3e a7 7c 90 bf
       0.1736733 -0.019737514 0.15963161 -1.1288041
000340 cd 26 02 40 04 ca a2 c0 e2 76 8c bf 04 85 29 40
       2.0336182 -5.08716 -1.097378 2.6487436
000350 3c cf 77 be f2 65 8a bd 39 bb f8 bf a8 be 1f c0
       -0.24200147 -0.06757726 -1.9432136 -2.4960117
000360 9a 35 1a bf 4c 72 9a c0 30 a7 d6 be e0 b2 99 3f
       -0.6023804 -4.8264523 -0.4192443 1.2007713
000370 73 de 2f 3e 05 8b ae bc 9f cd 72 bf 95 3a b7 bf
       0.17174701 -0.021306524 -0.94845 -1.4314753
000380 6c 0f 23 bf fc 14 66 bf 5d 34 d9 be 45 5c f1 3f
       -0.63695407 -0.8987577 -0.42422763 1.8856283
000390 f4 35 5a bd 65 d4 d3 be 2b 76 9d bf a7 6b 9e bf
       -0.05327411 -0.41372982 -1.2301687 -1.2376603
0003a0 a7 20 86 3e 88 62 33 c0 f2 ea 52 3e e4 c7 66 3f
       0.26196787 -2.8028889 0.20597437 0.9014876
0003b0 d8 c1 fc 3d 1f aa a4 bd cd 0b 95 be 00 c6 28 bf
       0.1234166 -0.080402605 -0.29110566 -0.65927124
0003c0 31 77 e7 3d 56 3f d0 bf 60 58 28 bd 6b 14 6b 40
       0.11302031 -1.6269329 -0.041099906 3.6731212
0003d0 87 24 f2 3d db f5 5e be e4 37 ec bf 38 e4 7c bf
       0.11823373 -0.21773474 -1.8454556 -0.98785734
0003e0 16 c4 4a 3f ab 92 74 c0 c0 6f 06 be 68 e0 59 40
       0.79205453 -3.821452 -0.13128567 3.4043217
0003f0 50 d7 2b be 3d d2 29 3e f2 30 af bf e5 f8 79 bf
       -0.16781354 0.16584106 -1.3686812 -0.9764541

eval_net.net.0.bias f4 [256]
000000 c4 7b e3 c0 a7 6d 05 c0 c1 5c 6c c0 9f af 10 c1
       -7.108858 -2.0848176 -3.6931612 -9.042876
000010 7a 6c 97 c0 9d 60 46 c0 a9 96 2e c0 78 b2 19 c0
       -4.731992 -3.0996468 -2.7279456 -2.4015179
000020 ac b9 2b c0 65 25 8e bf 49 4e eb c0 2f 1f b7 c0
       -2.6832075 -1.1105162 -7.3533063 -5.7225566
000030 52 07 7a c0 93 24 db c0 bd 04 a9 c0 cd 11 52 c0
       -3.9066968 -6.8482146 -5.2818284 -3.2823365
000040 a8 d8 ef c0 61 2d c5 c0 e2 37 08 c0 67 87 d2 c0
       -7.4951973 -6.1617894 -2.1284108 -6.5790286
000050 91 42 03 c1 ad 28 9f c0 a3 d7 64 c0 8d ae 9e c0
       -8.203752 -4.9737153 -3.5756614 -4.9588075
000060 d9 75 2b c1 46 df 8c c0 02 02 96 c0 16 77 9a c0
       -10.716271 -4.402255 -4.687745 -4.827037
000070 91 59 78 c0 21 62 85 c0 2d 93 72 c0 00 97 57 c0
       -3.8804667 -4.1682286 -3.790233 -3.3685913
000080 23 8d 8d c0 43 a1 56 c0 1d de da c0 6a 3c 93 c0
       -4.4234786 -3.3535926 -6.8396134 -4.601125
000090 2f 7f a2 c0 ce e4 d9 c0 87 4e c4 c0 9d 20 c0 c0
       -5.0780253 -6.8091803 -6.134586 -6.003981
0000a0 24 96 34 c1 eb b1 23 c0 04 73 40 c0 70 91 28 c0
       -11.286655 -2.5577343 -3.00702 -2.6338768
0000b0 19 5c 8b c0 f4 97 0c c1 f2 ab 4d c0 20 32 32 c0
       -4.3549924 -8.787098 -3.2136197 -2.7843094
0000c0 ce 9a bd c0 89 81 b2 c0 ed 7e 80 c0 94 7c 80 c0
       -5.925147 -5.5783124 -4.015494 -4.0152073
0000d0 fd c3 01 c1 7b 8b f6 bf 3d 59 14 c1 d5 f4 94 c0
       -8.110349 -1.9261316 -9.271787 -4.6548867
0000e0 74 aa 4f c0 d7 17 3e c0 64 07 47 c1 d8 6c ed c0
       -3.2447786 -2.970205 -12.439304 -7.4195366
0000f0 c8 92 8f c0 c7 e1 05 c1 e3 f8 6a c0 35 49 93 c0
       -4.4866676 -8.367621 -3.6714408 -4.6026864
000100 ff 8d 8a c0 8c 6b 7e c0 54 b5 a9 c0 3e 83 ec c0
       -4.3298335 -3.9753141 -5.303385 -7.391021
000110 63 a3 a7 c0 91 cb 33 c0 a8 86 33 41 c4 2c a1 c0
       -5.2386947 -2.8092997 11.220375 -5.0367146
000120 46 30 d2 bf 91 42 60 c0 71 66 45 c0 b6 2f a1 c0
       -1.6420982 -3.504063 -3.0843775 -5.037074
000130 0c 7a bd c0 bc 95 4b c0 53 6a 39 c0 40 51 08 c1
       -5.9211483 -3.181014 -2.8971145 -8.519836
000140 ad 56 4d c0 d3 29 a4 c0 71 70 8f c0 e5 c7 b6 c0
       -3.2084153 -5.1301055 -4.4824758 -5.711901
000150 9b 40 27 c0 0d 1d 18 c1 b1 61 a6 c0 f0 ad 9a c0
       -2.6133182 -9.507092 -5.199425 -4.8337326
000160 c2 55 5d c0 dd 71 23 c0 69 cc 11 c0 c0 1a a0 c0
       -3.4583592 -2.5538247 -2.2781012 -5.0032654
000170 ce b7 84 c0 d7 94 f6 c0 8f 88 39 c1 44 f6 69 c0
       -4.147437 -7.705669 -11.5958395 -3.6556559
000180 c8 60 0b c1 e1 f6 3f c0 6f a3 9c c0 9a 23 42 c0
       -8.711128 -2.9994433 -4.8949504 -3.033423
000190 0e 35 82 c0 10 7a e2 c0 a0 8d cd c0 fa c6 7c c0
       -4.0689764 -7.0774 -6.423538 -3.9496446
0001a0 55 82 e2 c0 71 0c 3a c1 9d eb 9b 40 7f 74 e8 bf
       -7.0784097 -11.628037 4.8725114 -1.8160552
0001b0 5e e4 6d c0 6a 1a 93 c0 a8 35 ef c0 db 60 c9 c0
       -3.7170634 -4.5969744 -7.4753 -6.293073
0001c0 74 e6 9a c0 09 19 f6 c0 66 a0 0d c1 3f 24 82 c0
       -4.8406315 -7.690556 -8.85166 -4.0669246
0001d0 b4 a8 50 c0 36 e9 68 c0 7a 91 c5 c0 72 94 de bf
       -3.2602968 -3.639234 -6.1740084 -1.7389052
0001e0 62 ed 49 c0 e9 8e bd c0 25 c4 31 c1 16 47 43 c1
       -3.1551137 -5.923695 -11.110387 -12.204855
0001f0 60 89 07 c1 0b 9e 1b c0 9a a8 82 c0 35 75 26 c1
       -8.471039 -2.4315212 -4.0830812 -10.403615
000200 1a 56 88 c0 45 49 f9 c0 ca 68 f5 c0 a2 1a 81 c0
       -4.2605104 -7.790194 -7.6690416 -4.034501
000210 dc f7 91 c0 f2 46 23 c1 76 dd 2a c0 bf 41 5a c0
       -4.5615063 -10.204821 -2.669767 -3.4102628
000220 1c d7 d5 c0 74 f6 51 c0 8e c2 20 c0 8f be 83 c0
       -6.6825085 -3.2806673 -2.5118747 -4.1170115
000230 8c 61 6d c0 33 9a 78 c0 ce c0 c3 c0 62 4a c3 c0
       -3.7090788 -3.8844116 -6.1172857 -6.10283
000240 1b 9b 91 c0 27 d5 8b c0 d4 4c f4 c0 1a 88 8b c0
       -4.550184 -4.3697696 -7.6343784 -4.360364
000250 58 af c6 c0 7d 11 33 c0 ac a6 92 c0 dd 76 08 c1
       -6.2089043 -2.7979424 -4.5828457 -8.529019
000260 64 ed 88 c0 51 6d 29 c0 d1 64 33 c0 9b ba 56 c0
       -4.2789783 -2.6472971 -2.8030283 -3.3551395
000270 41 13 ee bf 0f b9 ed c0 9d 55 ca c0 bb ff 2f c0
       -1.8599626 -7.42884 -6.322951 -2.7499835
000280 99 21 88 c0 d7 9a fc c0 d2 eb df c0 f5 c0 67 c0
       -4.2541013 -7.8939013 -6.9975367 -3.6211522
000290 7b 9d 3d c0 a2 0f 3c c0 50 c0 96 c0 6d 49 2f c0
       -2.9627368 -2.9384542 -4.7109756 -2.7388566
0002a0 0e 58 78 c0 ce cf bc c0 38 da fc c0 74 cb 5a c0
       -3.8803744 -5.900367 -7.901638 -3.4186678
0002b0 6d a7 18 c1 25 ee c6 c0 9c ad b3 c0 7d 89 f3 c0
       -9.540875 -6.2165704 -5.6149426 -7.610533
0002c0 88 51 eb c0 2d d3 89 c0 fb cc 82 c0 e1 82 74 c0
       -7.3537025 -4.3070283 -4.087522 -3.8204882
0002d0 a6 8f cd c0 76 11 fa c0 a5 50 d3 c0 85 ef 02 c1
       -6.423785 -7.8146315 -6.6035943 -8.183476
0002e0 20 fc b2 c0 55 c2 57 c0 9a 45 3a c0 09 fa 90 c0
       -5.593277 -3.371236 -2.9104981 -4.530522
0002f0 56 1f b6 c0 79 18 20 c0 c4 a1 85 c0 04 7a 93 c0
       -5.691325 -2.5014937 -4.175997 -4.6086445
000300 a5 a5 79 c0 74 ad 8a c0 19 c5 85 c0 3f 60 6d c0
       -3.9007351 -4.3336735 -4.18031 -3.7089994
000310 3a 51 8e c0 91 5c 94 c0 fa 0c 0b c1 3f b1 87 c0
       -4.4474154 -4.6362996 -8.690668 -4.2403865
000320 98 f4 d3 c0 c0 88 51 c0 82 88 83 c0 b3 7f a1 c0
       -6.6236076 -3.2739716 -4.1104136 -5.0468383
000330 7d 9e 91 c0 93 75 99 c0 8f 4d 1a c1 4f bb c4 c0
       -4.5505967 -4.7956023 -9.643935 -6.147865
000340 43 1b a6 c0 fc 74 76 c0 b1 94 c3 c0 35 67 6f c0
       -5.190828 -3.8508902 -6.111901 -3.7406743
000350 a0 2c e3 c0 10 ae ab c0 f2 4f 44 c0 1e 7f b7 c0
       -7.0991974 -5.364998 -3.0673795 -5.734267
000360 c6 85 c6 bf 2d ff 8d c0 45 82 85 c0 7b 25 06 c1
       -1.5509574 -4.4373994 -4.172152 -8.3841505
000370 42 98 b6 c0 c5 47 3c c0 eb f1 07 c1 37 4d e2 c0
       -5.706086 -2.9418805 -8.496562 -7.0719256
000380 38 67 63 c0 20 68 25 c0 53 1a 21 c0 17 2c 59 c0
       -3.553175 -2.5844803 -2.5172317 -3.393316
000390 38 63 41 c0 5c 3e a2 c0 aa 9b 81 c0 c0 12 ca c0
       -3.0216808 -5.070112 -4.050252 -6.314789
0003a0 d3 f9 91 bf b6 84 64 c0 97 03 78 c0 ec 74 39 c0
       -1.1404365 -3.5706 -3.875219 -2.8977613
0003b0 4b 61 3e c0 85 1e d6 c0 c6 71 61 bf d3 d2 b8 c0
       -2.9746883 -6.6912255 -0.8806423 -5.7757354
0003c0 fa 6f 21 c0 5a cb 37 c0 c6 7e cc c0 df 66 33 c1
       -2.5224595 -2.8717866 -6.3904753 -11.212615
0003d0 61 b7 0b c1 52 0c db c0 9c 89 3b c0 3f 54 85 c0
       -8.73227 -6.845254 -2.930274 -4.166534
0003e0 1c 56 68 c0 5c 1f 48 c0 88 e4 11 c1 6d ee 83 c0
       -3.6302557 -3.126914 -9.118294 -4.1228547
0003f0 ea cd 2b 40 15 24 9f c0 ec b2 ef c0 6f 43 90 c0
       2.684443 -4.9731545 -7.490591 -4.5082316

eval_net.net.2.weight f4 [256, 256]
000000 9a ad 19 3e 9b 5e 1b bd cf 4e db 3d b9 ae 3b bd
       0.1500763 -0.03793202 0.10708391 -0.045820925
000010 9a 14 b7 bd 89 d7 76 3d e4 25 6a bd 7c 37 0d 3e
       -0.08939476 0.060264144 -0.05716504 0.13790697
000020 26 b5 48 3e 34 ec 7c 3b 0c b4 99 3c 91 a1 03 3e
       0.19600353 0.0038592936 0.01876261 0.12854601
000030 5d 71 f9 3d 3d f6 0d bd c8 6e e2 bc ec 2b f9 3d
       0.121798255 -0.03465866 -0.027640715 0.121665806
000040 d6 e2 27 3e bf b4 87 be a7 22 10 bd 7c 9e d2 3d
       0.16395125 -0.26505086 -0.035189297 0.10284135
000050 f1 1e d8 3c 41 c1 3c 3d 8f 80 a4 be 1f a1 ab 3d
       0.026381942 0.04608274 -0.32129332 0.08380341
000060 b8 64 d5 bd 53 2e 33 3e a0 23 1f bd fd fa 28 be
       -0.10419601 0.1749814 -0.038852334 -0.16501994
000070 4c ab 22 bd fb 42 4c be 5a 66 a0 3d 8d 55 11 3d
       -0.039714143 -0.19947426 0.07832022 0.03548198
000080 25 9d 5d be be bd 18 3c 0b 71 76 be cf 58 fb bd
       -0.21641977 0.009322582 -0.2406656 -0.12272798
000090 63 55 bf bc 58 03 b5 3d c1 0a b6 3d e7 d9 01 3e
       -0.023356145 0.088385284 0.0888877 0.1268078
0000a0 2b fd 8e 3e 63 8e b9 be 30 f0 2d be f7 5e d5 3d
       0.27927527 -0.36241445 -0.16986156 0.10418504
0000b0 8a e2 86 be de b6 2a be 6a 1c cf bd 23 a8 be bd
       -0.2634471 -0.16671321 -0.101128414 -0.09309413
0000c0 77 57 f5 3c f0 aa 54 be 71 b6 23 be 1f a6 bc 3d
       0.029948933 -0.20768332 -0.15987565 0.092113726
0000d0 6d 42 15 bf f2 06 5a 3e 3b 34 6a be b9 75 0f 3c
       -0.5830448 0.21291712 -0.22871487 0.008756095
0000e0 41 5a c9 3c 90 da 35 be 26 5b 4c bf 4b 58 0c bd
       0.02457917 -0.17759156 -0.7982658 -0.03426389
0000f0 d3 ca 4a bd e5 aa 96 bc ae 92 af 3d 87 31 70 3d
       -0.049509834 -0.018392036 0.08572899 0.058640983
000100 63 f5 cf ba e1 74 78 3e 1c 34 13 be 9b 55 67 3d
       -0.0015865978 0.24263336 -0.14375347 0.056478124
000110 9a b9 c3 3d f4 6a 05 3d 8b cf 12 bf d5 3f 5e 3c
       0.09556885 0.0325727 -0.57347935 0.013565023
000120 5a aa 90 bd 1f 01 1a bd 80 02 b3 3d 37 ac 7f be
       -0.07063742 -0.037598725 0.08740711 -0.24968038
000130 98 41 05 3d 1a 4e 12 3e bd cf f5 bd 5c bd 0f bf
       0.03253326 0.14287606 -0.120025136 -0.56148314
000140 4b 4d 01 be a6 9d 15 be 63 aa 3e be 70 37 19 3d
       -0.12627141 -0.1461092 -0.18619685 0.037406385
000150 20 bf 74 3b ac 43 39 be a7 14 a6 3d 2e 42 a7 bd
       0.0037345365 -0.18092221 0.08109408 -0.0816692
000160 c0 be 3a 3e 5a f7 c2 be b0 7f 34 3e 03 fc d5 3e
       0.18236828 -0.3807934 0.17626834 0.41793832
000170 92 a3 64 3c 0c 83 82 be fe ba d0 be b7 d0 0c bd
       0.013955014 -0.25490606 -0.40767664 -0.034378733
000180 58 b7 33 bf 80 9f bb 3d 0c f0 94 bd e7 6b 8d be
       -0.70201635 0.091612816 -0.07272348 -0.27621385
000190 d8 1f af 3d 47 07 90 be dc 77 ba 3d 25 75 6f 3e
       0.085509956 -0.28130552 0.091048926 0.23384531
0001a0 de f8 40 3d 00 d7 15 3e 8e b2 e7 be eb 86 bb bd
       0.04711234 0.14632797 -0.45253414 -0.09156593
0001b0 07 90 3e 3e b0 86 84 3d ed fd 86 be a1 c3 f6 be
       0.1860963 0.06471002 -0.26365605 -0.48196128
0001c0 77 78 b3 bc 28 75 aa be 9a d6 a7 3c 9b d0 06 be
       -0.021908028 -0.33292508 0.020488072 -0.13165514
0001d0 87 c3 d1 be 77 da b7 bd d5 e6 1b 3e 03 cc e5 bd
       -0.40969488 -0.08977216 0.15224774 -0.11220553
0001e0 88 ab 88 be 7f 3d 1b be 89 13 87 bf 8a 9b 37 bf
       -0.26693368 -0.15160178 -1.0552837 -0.7172171
0001f0 ed 76 ac 3d b8 07 00 bc df 9c db 3d c5 40 3a be
       0.08421121 -0.00781434 0.1072328 -0.1818877
000200 cb 6f e1 bc b2 51 03 bf 0e 12 aa be 80 9a 83 3d
       -0.027519127 -0.5129653 -0.332169 0.06425953
000210 d4 00 3e bd ad f8 28 bf b8 8e 72 be 59 ce ed 3d
       -0.04638751 -0.6600445 -0.23687255 0.11611623
000220 db 95 0e be 95 50 27 be 15 88 8e be 6a df 8a bd
       -0.13924353 -0.16339333 -0.27838197 -0.06780894
000230 08 33 11 3e b1 45 bd bd b7 b2 d9 bd ac 71 3d be
       0.14179623 -0.09241808 -0.1062979 -0.18500394
000240 04 cb a0 3d 0b 88 fc 3b 3c d6 6e bf 1f 56 bd 3c
       0.07851222 0.0077066473 -0.93295646 0.023112355
000250 80 31 8f be 09 23 5f 3d ff d6 03 bd c0 86 3b 3d
       -0.27967453 0.05447677 -0.032187458 0.045782804
000260 49 53 62 be 49 8e 91 bd eb d8 4c 3e 73 41 50 3e
       -0.22102083 -0.07107217 0.20004623 0.20337467
000270 20 d0 4f be 7f 65 c1 be 7e 37 13 be c7 85 4e 3c
       -0.20294237 -0.37772748 -0.14376637 0.012605137
000280 1f 5a 55 3d cc d1 78 bd aa 85 07 bd 19 12 17 bd
       0.0520879 -0.060746953 -0.033086456 -0.036882494
000290 dd db af bd 32 76 5a 3d 76 ed 9d bd 60 c4 cd 3c
       -0.085868575 0.053335376 -0.07711308 0.025118053
0002a0 1d 8a a0 bd 9b b7 0e 3e 82 cb 97 be d0 aa df bd
       -0.07838843 0.13937227 -0.29647452 -0.10921252
0002b0 83 65 8e 3d 33 b6 bc 3d 1f 1f 99 be 99 26 d2 be
       0.069529556 0.09214439 -0.29906556 -0.41045073
0002c0 a0 17 e1 be 8b 3d 9e be 03 30 e4 bd ac 06 cf 3d
       -0.43963337 -0.3090633 -0.1114197 0.101086944
0002d0 c4 2f 2d be 4e d5 10 bf 65 01 66 3e a4 ad 93 3d
       -0.16912752 -0.5657548 0.2246147 0.07210854
0002e0 4c 62 1f bd 9f fc b3 3d 3d c5 d5 3b cc 37 9f be
       -0.038912103 0.08788418 0.006523757 -0.31097257
0002f0 28 34 d8 be d1 2f 26 be e7 de 3d 3d bf 4d ac 3c
       -0.42227292 -0.16229178 0.046355154 0.021033166
000300 c1 dd 15 be 7e 5c 40 be 49 3f ae 3d 27 b7 7e be
       -0.14635374 -0.18785283 0.085081644 -0.24874555
000310 c3 bf 74 be 8b f0 ac be ca 53 a1 3c c2 9f 12 be
       -0.23901276 -0.3377727 0.019693274 -0.14318755
000320 3a df 70 be bc bd e8 bd 28 16 16 be 47 87 76 be
       -0.23522654 -0.11364314 -0.1465689 -0.24075042
000330 a5 de 85 be d8 c9 2c be 02 a6 3a be 36 cc 44 bc
       -0.26146427 -0.16873872 -0.1822739 -0.012011578
000340 3e 01 11 be c9 6b 09 3e 77 c0 5d 3d e2 ad 1b be
       -0.1416063 0.13420023 0.054138627 -0.1520305
000350 65 97 ae 3d 1d 39 5f bd 6c 16 ad 3d c3 a7 23 3c
       0.0852497 -0.054497827 0.08451542 0.009988728
000360 db ee 47 3d 8c db ee 3d cf 3a cf be fc 27 90 be
       0.048811775 0.11662969 -0.40474555 -0.28155506
000370 f8 f9 1b bf 86 9e 4a be 00 18 55 bf 2f d5 13 3e
       -0.609283 -0.19787034 -0.83239746 0.14436792
000380 3e 42 2b be 24 9f 04 be ea 5c fb bd eb 72 fe bd
       -0.16724488 -0.12951332 -0.12273581 -0.124242626
000390 cb 6c 87 3d f4 23 59 be c2 da 92 be 99 e7 da 3d
       0.066125475 -0.21205121 -0.28682524 0.10688705
0003a0 82 04 2f be 01 2b 2a 3e 7c 4d cd be 24 ca 2e be
       -0.17091563 0.16617967 -0.40098178 -0.17069298
0003b0 0d 9a 9d 3d 9d a3 f8 b8 a1 48 70 3c 9f 3c 07 bf
       0.076953985 -0.00011856037 0.014665754 -0.52826875
0003c0 fc f1 36 bd 61 c8 2b bd 44 71 c3 3b c6 0b 90 3d
       -0.044664368 -0.041939143 0.00596443 0.070334956
0003d0 86 ec 69 3e ca e1 90 be ba 28 6a bc e0 1e 11 3e
       0.22844133 -0.28297263 -0.0142919365 0.14171934
0003e0 7b 54 3f be 85 d2 e2 be ce d3 17 3d d5 be 46 3d
       -0.1868457 -0.4430124 0.037067227 0.048521835
0003f0 bb a7 3a bf 64 a9 16 be 4a 26 a8 be 1a 9b f2 3d
       -0.72912186 -0.14713055 -0.32841712 0.118459895

eval_net.net.2.bias f4 [256]
000000 be e9 dc bf 7d 84 b7 c0 47 98 9a bf 29 b4 94 c0
       -1.7258832 -5.734923 -1.2077721 -4.646992
000010 87 9c 70 c0 31 45 0f c1 d2 9e 94 bf a5 51 ed c0
       -3.7595537 -8.954392 -1.1610968 -7.4162164
000020 89 06 b9 bf 49 38 f1 bf 81 b2 a6 c0 a2 74 b4 bf
       -1.4455119 -1.8845302 -5.20929 -1.4098094
000030 a9 51 87 c0 12 f6 a2 c0 79 19 0d c0 0a 8f 0a c0
       -4.2287183 -5.092538 -2.2046797 -2.1649804
000040 bc 61 80 c0 27 6e 22 c0 ee 9c dc c0 fd d9 ef c0
       -4.0119305 -2.5379732 -6.8941565 -7.49536
000050 82 56 74 bf a8 f4 7a c0 ef 2a f3 c0 42 a9 ac c0
       -0.954445 -3.9211826 -7.598991 -5.3956614
000060 56 fb 7f bf 9d d0 9d bf 95 f9 83 c0 da cd 80 c0
       -0.99992883 -1.2329289 -4.1242166 -4.0251284
000070 30 31 91 c0 92 0b 7c c0 e2 2b ef c0 40 1a 88 c0
       -4.5372543 -3.9382062 -7.474107 -4.2532043
000080 12 0b d9 c0 58 5e d6 bf 33 80 de c0 4f 6e d3 c0
       -6.7826014 -1.6747541 -6.9531493 -6.6072154
000090 20 ae 8d bf 0f 8a 32 c1 ac ae 1c c1 da ad 8b c0
       -1.1068764 -11.158706 -9.7926445 -4.364972
0000a0 a0 d4 86 c0 0f 70 9b c0 5c ae 45 c0 63 ab 9f c0
       -4.213455 -4.857429 -3.088767 -4.989671
0000b0 28 d0 ef c0 b8 4b 38 c1 13 c0 86 bf fc 92 e0 c0
       -7.4941597 -11.518486 -1.0527366 -7.0179424
0000c0 19 dc 91 c0 7c 38 f0 c0 86 31 ca c0 c9 65 f8 c0
       -4.5581174 -7.506895 -6.3185453 -7.762425
0000d0 e9 81 97 c0 65 41 bf bf f8 20 d5 c0 b9 72 06 c1
       -4.734608 -1.4941832 -6.6602745 -8.403008
0000e0 a2 7c d5 c0 a5 d5 7a c0 ff b3 60 bf b8 e8 40 bf
       -6.671464 -3.9192898 -0.8777465 -0.753551
0000f0 7b 69 5c c0 3a 25 d2 c0 fc b4 fe c0 47 9b c5 c0
       -3.443938 -6.5670443 -7.959593 -6.1752048
000100 bf db 6e c0 62 36 07 c1 0f ed 75 bf 4d 99 da c0
       -3.7321622 -8.450777 -0.9606485 -6.8312135
000110 5b 0a 94 c0 d4 06 a8 c0 67 1a fb c0 c7 e6 1b c1
       -4.626264 -5.2508335 -7.846973 -9.743842
000120 d2 6b 99 c0 00 17 b1 c0 a0 2f c1 bf 09 af f4 c0
       -4.7944117 -5.5340576 -1.5092659 -7.6463666
000130 fe c7 a2 c0 6a be fc c0 39 8d 9c c0 7b 1c ca c0
       -5.086913 -7.898244 -4.892239 -6.3159766
000140 74 19 4b c0 a5 c4 77 bf 57 13 df c0 ae 15 c9 c0
       -3.1734285 -0.9678443 -6.971111 -6.2838964
000150 9c df 13 c1 7b e0 d4 bf c9 f3 18 c0 81 bc a2 c0
       -9.242092 -1.6631006 -2.3898795 -5.0855107
000160 3f fe d1 bf 9f 2d 90 c0 79 ff a0 c0 a7 91 cc c0
       -1.6405715 -4.505569 -5.0311856 -6.39278
000170 57 eb a2 c0 e0 eb 24 c0 64 31 7a c0 6a b5 b2 c0
       -5.091228 -2.5768967 -3.9092646 -5.5846453
000180 5a 94 85 c0 c2 05 c2 c0 59 50 87 c0 aa c6 a8 c0
       -4.1743593 -6.063203 -4.228558 -5.274251
000190 90 56 a8 c0 9c 6f f2 c0 b1 e2 85 c0 bf c7 03 c1
       -5.2605667 -7.576124 -4.1839223 -8.236266
0001a0 78 c1 72 bf 95 a1 1c c1 d9 6b 28 c1 fc 75 a3 c0
       -0.9482646 -9.789449 -10.52633 -5.1081524
0001b0 c3 69 fc c0 e0 17 5c c0 4c d8 62 c0 2f 5a ea c0
       -7.8879104 -3.4389572 -3.5444517 -7.3235087
0001c0 08 49 42 c0 2e 6c 26 c1 2c 04 28 c1 f3 3c e6 bf
       -3.0357075 -10.401411 -10.501019 -1.798735
0001d0 69 b8 be bf 65 35 75 bf e7 4f 85 c0 3d f2 f9 c0
       -1.4900028 -0.957846 -4.1660037 -7.81082
0001e0 88 ad 62 bf db 0c ae bf 8b aa 02 c1 7c ad 93 c0
       -0.8854604 -1.3597673 -8.166636 -4.6149273
0001f0 f7 f6 23 c0 29 31 83 c0 0c 68 07 c1 47 02 c1 bf
       -2.5619485 -4.099751 -8.462902 -1.507882
000200 9b 09 e0 c0 42 72 aa c0 78 68 a8 c0 75 8c 02 c1
       -7.0011725 -5.3264475 -5.2627525 -8.159291
000210 5a 28 9d c0 9d 95 66 c0 9c a5 03 c0 59 21 14 c0
       -4.9111757 -3.6028817 -2.056983 -2.3145354
000220 5b f2 79 c0 f1 74 9f c0 41 ba 69 c0 79 c1 5e c0
       -3.9054172 -4.983025 -3.651993 -3.4805586
000230 f2 0e fb bf 62 39 82 c0 1c de a6 c0 33 fd 01 c0
       -1.9613936 -4.0695047 -5.214613 -2.031079
000240 46 3d 33 c0 ed cd 51 c0 3f ba 30 c0 7b b2 15 c0
       -2.8006148 -3.2781937 -2.7613676 -2.3390186
000250 45 37 a0 c0 28 02 b1 bf 75 fb b7 c0 c0 71 c0 c0
       -5.006747 -1.3828783 -5.7494454 -6.0138855
000260 0c 4e 05 c1 b3 89 b6 c0 03 69 6b c0 f4 d0 82 bf
       -8.331554 -5.704309 -3.6782844 -1.0220017
000270 a4 cc db c0 43 64 c2 c0 d1 70 5a c0 9b 51 a6 c0
       -6.8687305 -6.074739 -3.4131358 -5.1974616
000280 69 3f a2 bf 02 9a 68 c0 a2 d9 4f c0 73 bb 3a bc
       -1.2675601 -3.6344 -3.2476583 -0.01139723
000290 4e 92 c7 c0 72 c6 6e c0 84 fe 8c c0 47 1c db c0
       -6.2366095 -3.7308621 -4.406069 -6.847202
0002a0 01 84 12 c1 cf bc c4 c0 d8 ef 1d c0 89 c9 2e c0
       -9.1572275 -6.148048 -2.467764 -2.7310507
0002b0 e8 57 8e c0 21 5e 65 c0 3d cc a9 c0 bc 81 b1 c0
       -4.4482307 -3.5838702 -5.3061814 -5.5470867
0002c0 9e 9b 2b c1 f3 20 87 c0 9a d5 92 c0 d9 2c 1e c1
       -10.7254925 -4.222772 -4.5885744 -9.885949
0002d0 f2 c4 de bf aa c7 e1 c0 59 89 24 c0 22 85 fb c0
       -1.7403853 -7.055623 -2.570883 -7.8600016
0002e0 f2 f2 ad c0 5f cf de c0 1f d5 41 c0 d3 90 fc bf
       -5.4359064 -6.962814 -3.0286329 -1.9731697
0002f0 28 82 9b c0 a4 16 0d c1 e8 dd 92 c0 bf 87 8e c0
       -4.859638 -8.8180275 -4.589588 -4.4540706
000300 1c e2 a9 bf d6 d5 e3 c0 05 bc 99 c0 11 90 87 c0
       -1.3272128 -7.119853 -4.8042016 -4.236336
000310 e5 9f 91 c0 02 15 d7 c0 9e 8f e6 c0 5d bf 6f c0
       -4.5507684 -6.7213144 -7.2050314 -3.746055
000320 56 24 db bf eb b0 65 c0 fb 34 bd bf 02 36 e3 c0
       -1.7120464 -3.5889232 -1.4781793 -7.1003428
000330 3c 1a be c0 31 b4 94 c0 d6 f4 8b bf 23 36 9f c0
       -5.9407024 -4.646996 -1.0934093 -4.9753585
000340 2e 8c 13 c0 da 07 32 c1 49 20 a9 c0 69 95 93 c0
       -2.305431 -11.126917 -5.285191 -4.6119885
000350 0d f7 9c c0 96 13 08 c1 1f 5d 95 c0 4e 17 ed bf
       -4.9051576 -8.504782 -4.6676173 -1.8522737
000360 59 a4 a1 c0 d6 e5 3f c1 a4 0b 5d c0 74 e7 02 c1
       -5.051312 -11.993612 -3.4538355 -8.181507
000370 f9 09 da c0 19 c2 b0 c0 1f 9a b3 c0 2f 35 8e c0
       -6.8137174 -5.5236936 -5.6125636 -4.443992
000380 9b 31 df c0 a3 39 c4 c0 b7 c3 bc bf 23 d6 86 c0
       -6.9748054 -6.1320357 -1.4747227 -4.2136397
000390 14 82 b0 c0 d5 95 29 c0 11 c8 32 c1 c4 78 d7 bf
       -5.5158787 -2.64977 -11.173844 -1.683373
0003a0 bd a7 46 c0 15 6c b9 bf e3 68 49 c0 af 0c b0 c0
       -3.103988 -1.4486109 -3.1470268 -5.5015483
0003b0 99 47 0f c0 82 6f 02 c1 0f 57 c0 c0 82 fb f7 c0
       -2.238745 -8.152224 -6.0106273 -7.7494516
0003c0 e0 95 85 c0 d5 6a e4 c0 05 da 54 c0 47 06 ee c0
       -4.1745453 -7.138041 -3.3258069 -7.4382663
0003d0 f9 e0 24 c0 65 4a d5 c0 df e2 92 c0 aa eb 3a c0
       -2.5762312 -6.6653314 -4.590194 -2.9206338
0003e0 4c 96 81 c0 ee 1f 0e c1 f1 ed 86 c0 35 e6 d6 c0
       -4.049597 -8.882795 -4.2165456 -6.7156014
0003f0 f3 e9 de c0 7e 13 b1 c0 27 00 bf c0 92 fd bc c0
       -6.9660583 -5.5336294 -5.9687686 -5.9059534

eval_net.net.4.weight f4 [4, 256]
000000 97 6b ef bd 86 a5 d3 bc cd ac 90 bd 30 f6 50 bc
       -0.11690443 -0.025835764 -0.07064209 -0.012754008
000010 85 5d 4d 3e bd b9 bb bf 0e 3b 07 bf bd 6c 08 be
       0.20055206 -1.4666058 -0.52824485 -0.1332273
000020 b1 aa 34 40 ec 24 9a be 02 f8 98 3d 5a 9e 88 bf
       2.8229182 -0.30106294 0.07469179 -1.0673325
000030 73 22 28 3e ec ff 01 bf 03 84 0a be ea 7f bc b9
       0.16419391 -0.5078113 -0.13526921 -0.00035953458
000040 6c a9 b7 be 4c 06 d8 3e 72 c7 21 3f 97 17 40 bf
       -0.35871446 0.42192304 0.63194954 -0.75035995
000050 26 42 0d 3c 45 ea 35 3e 3c 01 e1 3e fd de 94 3d
       0.008621728 0.17765148 0.43946254 0.07269094
000060 fe 67 c0 3c cd 11 d4 bd 97 e8 d3 bd 7c 6d 52 3e
       0.023487087 -0.10354958 -0.10347097 0.20549577
000070 4f df d8 bd 36 24 7b 3f 41 36 d0 be 13 f2 4b 3e
       -0.10589468 0.9810213 -0.40666392 0.19916563
000080 15 5a 27 be c6 e5 bf 3e bf 2f 57 be d6 9b 87 3f
       -0.16342957 0.3747999 -0.21014307 1.0594432
000090 4b 0e ae 3e a6 c4 9b bd 45 d3 85 3e 9f 58 5b be
       0.3399528 -0.07605867 0.26137748 -0.21420525
0000a0 71 3d f6 3d dc ee 74 be 93 4b 46 3e 81 15 8c bd
       0.12023438 -0.23919243 0.19364767 -0.06840039
0000b0 71 87 73 3e 35 55 fc 3e 51 4c 95 3d d9 5d aa bd
       0.23782136 0.49283758 0.07289947 -0.08318681
0000c0 d3 7f 40 3d 41 db ed 3c eb a8 93 3e 50 f6 10 bd
       0.046996903 0.029035212 0.28839812 -0.035391152
0000d0 59 5c 9e bd 5b 62 0d bf f6 28 35 3f c6 b0 e8 3e
       -0.07732458 -0.55228204 0.70765626 0.45447367
0000e0 df 91 e3 be 20 29 99 be cf 1f c2 3e 37 11 9e 3e
       -0.44447228 -0.29914188 0.37914893 0.3087251
0000f0 4d 58 3c 3d df 24 8b be d2 a9 85 3f 30 1a 7f bd
       0.045982648 -0.27176568 1.044245 -0.062280834
000100 45 c8 9d bf b9 ce 4d 3f 05 3a b1 3c 6e 63 b7 bf
       -1.2326742 0.8039356 0.021634111 -1.4327219
000110 43 07 90 bf 28 e8 9f 3e 80 34 2e 3f a3 38 2c bf
       -1.1252216 0.3123181 0.6804886 -0.6727392
000120 3b 38 29 be e4 5f de 3f 2a 76 ee bd 46 a8 b4 3f
       -0.16525356 1.7373013 -0.11643632 1.4113853
000130 56 e0 90 3e f6 1e a8 3d 26 04 28 3e 59 22 90 3e
       0.28296155 0.0820903 0.16407833 0.28151205
000140 98 ca 3d bd 8b d1 93 be af 8a 5f be 6c 95 5c bf
       -0.046335787 -0.28870806 -0.21830247 -0.861655
000150 09 e8 20 bf 92 a7 36 3e 51 84 20 3f b1 52 be 3e
       -0.6285406 0.1783736 0.627019 0.37172464
000160 f2 86 0a bd f0 c4 6c bd ce ce e5 3a dd 21 d3 3e
       -0.0338201 -0.057805 0.0017532946 0.41236773
000170 26 a7 b1 bf 76 b2 df bd 9f 9a 12 3f a9 f4 30 3f
       -1.3879135 -0.109227106 0.57267183 0.6912332
000180 50 14 71 bd 75 93 04 40 00 fd c2 3c e6 0c 09 3f
       -0.058857262 2.0715 0.02380228 0.53535306
000190 80 89 0d 3e df ad 99 3f 54 49 d3 3e 9c 7a f8 3e
       0.13821983 1.2006186 0.41266882 0.48531044
0001a0 bb e4 9e 3e cc 8a 3c 3e d5 50 ee bf 73 04 fa bd
       0.31033882 0.18412322 -1.8618418 -0.1220788
0001b0 a3 b9 c0 3f 7a 88 d3 3e 07 7f 2f 3f fa 2d a3 3f
       1.5056652 0.4131506 0.68553203 1.2748406
0001c0 d7 36 90 3d 29 d5 01 bf 36 49 ce 3b fb 99 24 3d
       0.0704171 -0.5071588 0.0062953485 0.04018591
0001d0 8c fb 72 bf cc 04 45 3c 1a 9b 95 3d 76 91 9a 3e
       -0.9491508 0.012025069 0.07304974 0.30189103
0001e0 63 91 a4 3e 49 41 92 3f ca 9c f0 3e bb db 7f 3e
       0.3214217 1.1426173 0.4699462 0.24986164
0001f0 73 9d 1d 3f 4e ec e6 3e 62 8e 11 bf a7 42 31 3d
       0.61568373 0.4510216 -0.56857884 0.043276455
000200 dc f0 20 3e 82 1b 41 bf 40 0a 23 bd 94 27 d3 bd
       0.1571688 -0.754326 -0.039804697 -0.10310283
000210 4e 86 c1 3e 19 4b 69 3e 84 97 f1 bd 02 38 90 bd
       0.3779778 0.22782554 -0.117964774 -0.07041933
000220 68 c9 74 3e 78 00 8d bf c2 40 3a 3f 5c 74 1f bc
       0.23904955 -1.1015768 0.7275506 -0.009732332
000230 d4 d8 0e c0 71 a9 18 bf dc ae 1e bf 9d 6f 6d bf
       -2.2319841 -0.5963355 -0.61985564 -0.92748433
000240 59 d2 41 be 59 fa 39 3f 52 41 ea 3e db 8c a4 3e
       -0.18927898 0.72647625 0.4575296 0.32138714
000250 b6 27 9e 3b 89 4a 4f be 6b 08 50 3d c2 a5 9d bf
       0.0048265113 -0.20243277 0.050789278 -1.231621
000260 a3 c5 4b bf 0d a4 7d 3f 81 41 04 be c1 91 65 3c
       -0.79598445 0.99078447 -0.12915613 0.014011801
000270 76 4e 63 be fe bf 55 bf cd 85 c8 bd 4d c7 e0 bb
       -0.22197899 -0.8349608 -0.097911455 -0.006859696
000280 75 25 99 be 49 5f 11 3e ec 31 a4 be df 1d 10 40
       -0.2991139 0.14196505 -0.32069337 2.2518232
000290 f6 9a 68 be ab fa e0 be 80 41 d0 be 0f c0 f3 3c
       -0.22715363 -0.43941244 -0.40674973 0.029754667
0002a0 ad af 89 3e f6 73 79 3f 7b 3b 36 be 8d be 95 bd
       0.26891842 0.9744257 -0.17796127 -0.07311735
0002b0 9b ac 52 3f d7 50 b6 3e 2e 71 1c 40 27 b7 dc 3e
       0.82294625 0.3560855 2.444408 0.43108484
0002c0 64 c2 00 bf 1d fc 72 3f 20 a2 0f bf 92 48 61 be
       -0.50296617 0.94915944 -0.5610676 -0.2200034
0002d0 55 fb e4 bd 4b b9 43 be b7 c2 15 bd a5 a6 23 3f
       -0.1118075 -0.19113652 -0.036562648 0.63926154
0002e0 fa 86 5c bd 8c 15 9e 3f da 02 b7 3e 21 0b 74 3e
       -0.05383966 1.2350326 0.35744363 0.2383237
0002f0 94 94 00 bf cd 07 b6 bf 60 ba ac bd 38 70 18 3e
       -0.5022671 -1.4221131 -0.08433986 0.14886558
000300 ce 5d b8 be ba 98 57 3e 91 ec 31 be 79 c5 28 3e
       -0.36009067 0.21054354 -0.17375399 0.1648158
000310 73 bc 1b bf f2 3a cb 3d 2c 92 04 3f af bf 0b 3f
       -0.60834426 0.09923352 0.5178554 0.5458936
000320 87 e2 ff bc 5e f5 8a bf cf a7 6f 3e 73 fc bf ba
       -0.031235946 -1.085613 0.23403858 -0.0014647379
000330 33 31 01 be 7c 0e 81 3e b7 e4 a1 3c 32 ad 32 3f
       -0.12616424 0.25206363 0.01976238 0.69795525
000340 61 94 d5 be 7d f1 1c 3e 1c 55 a1 be 54 b1 6e 3e
       -0.41714767 0.15326495 -0.31510246 0.23309833
000350 4a 7f 6a be b8 ee 20 bf 60 3e 65 3f 4f 58 0b 3f
       -0.2290012 -0.62864256 0.895483 0.54431623
000360 ff 3d 03 3f 79 37 8f 3e cb 9a a7 3e 24 cb bc 3e
       0.51266474 0.2797201 0.32735285 0.36873734
000370 36 bf 8e 3e cb e8 a6 bf d2 e2 55 be 73 b6 a4 bc
       0.27880257 -1.3039793 -0.20887306 -0.02010653
000380 8e 2f 1a bd 11 9c e5 3f 37 ee 65 3e 7d 7f d0 bc
       -0.037643008 1.7938253 0.22454153 -0.025451416
000390 8f 2d 1c 3e 79 2b 38 be eb fc 62 40 6a c7 95 3e
       0.15251754 -0.17985334 3.546687 0.29253703
0003a0 26 b1 02 be 28 d2 3c 3e 1c f4 ab 3e 52 0d d7 bd
       -0.1276289 0.18439543 0.33584678 -0.105005875
0003b0 0e 8e 4d 3e 15 08 c7 3e 5b db 0b bf 09 c9 51 be
       0.20073721 0.38873354 -0.54631585 -0.20486845
0003c0 d1 19 06 be 47 36 04 bf 02 b5 f0 bc 20 59 57 bf
       -0.13095786 -0.5164532 -0.029383186 -0.8412037
0003d0 29 6d 53 3f 66 6e 30 bf 73 a9 29 3d 08 47 8a 3e
       0.8258844 -0.68918455 0.041421365 0.27007318
0003e0 7f d9 dc 38 fa 64 dd bd 8e 8e e6 3c f7 9b 6b 3d
       0.00010530929 -0.108102754 0.028144147 0.057521787
0003f0 50 59 69 bf 30 93 82 be c6 2e df bd df f5 88 bd
       -0.91151905 -0.2550292 -0.10897593 -0.06687521

eval_net.net.4.bias f4 [4]
000000 8c f0 26 c2 88 a6 26 c2 76 a4 26 c2 99 4c 26 c2
       -41.73491 -41.66263 -41.660606 -41.574802
