DQN/DQN_Naive.pth (torch, 279388 bytes, 6 tensors)

eval_net.net.0.weight f4 [256, 8]
000000 89 c5 76 bd 9a 24 6f c0 ba 8a 05 bf ac 87 cb 3f
       -0.060246978 -3.736609 -0.52164805 1.5900779
000010 0c 8a 2f bf b3 a5 d6 3e 81 d3 d2 3e af f8 28 3f
       -0.6857002 0.41923293 0.4117699 0.6600446
000020 ca 44 02 3f 42 5b 29 c0 84 d5 05 3f 7f bb ec 3f
       0.50886214 -2.646195 0.52278924 1.8494719
000030 9f 74 62 bf 77 bf b5 3b e2 55 08 3e 95 da 43 3f
       -0.884592 0.005546506 0.13314012 0.76505405
000040 29 6b 1b 3f cd 92 cb bf ea a3 0c 3e 22 91 2e 3f
       0.6071039 -1.5904175 0.13734403 0.68190205
000050 93 49 23 3f e0 03 78 3e fb 2a 66 bf 8a 26 ad bf
       0.6378414 0.24220228 -0.89909333 -1.3527386
000060 67 cd a2 be 5a 0a a6 bf c8 ca 55 3e be 21 91 3f
       -0.31797335 -1.2971909 0.20878136 1.1338422
000070 9c ed 12 3e 4d 26 f6 bc 17 f7 57 be 6d d0 98 be
       0.14348453 -0.03004756 -0.21090351 -0.29846516
000080 ed 06 1e 3f eb 1a 93 be 56 c2 53 3f 2a 2d 04 3e
       0.6172932 -0.28731474 0.8271841 0.12907854
000090 d8 9e ae be c0 56 dc be 32 94 51 3d b5 4e b8 bf
       -0.34105563 -0.43034935 0.05116672 -1.439902
0000a0 cf 76 38 bf 3c a2 ec bf e9 7f e6 3e 81 9d e4 3e
       -0.7205629 -1.848701 0.45019463 0.44651416
0000b0 29 55 2a 3f 1a 7a 45 bf e8 e1 59 bf 4a 0b 81 be
       0.66536194 -0.7713944 -0.8511033 -0.25203925
0000c0 01 85 e5 3f 70 40 2a c0 46 20 ad bd c9 56 b2 3f
       1.7931215 -2.660183 -0.08453421 1.3932735
0000d0 40 33 96 be 94 99 4c 3d 49 1b d2 3e 38 aa 80 bf
       -0.29335976 0.04995115 0.41036442 -1.0051947
0000e0 7a e1 88 3f 31 b2 14 c0 8c e6 0b 3d 21 00 05 40
       1.069381 -2.323376 0.034155414 2.0781329
0000f0 55 1c 5b 3e 87 16 cd bc 61 ac d7 be c0 83 e1 3d
       0.21397527 -0.025035156 -0.42123702 0.110114574
000100 10 73 08 3f fd 2c 3e c0 22 b0 4b 3f cb b4 9b be
       0.5330057 -2.9714959 0.7956563 -0.30411372
000110 48 04 eb bd 47 d5 32 bf ca bf 07 3f 6f ed 74 bf
       -0.11475426 -0.69856685 0.5302702 -0.95674795
000120 2c 71 04 3f 9e 4a e3 bf 9b ba e0 bd 28 a6 f8 3e
       0.51735187 -1.7757146 -0.10973092 0.48564267
000130 69 50 a4 be ac 62 ba bd 2e 68 0d bf b1 ef 1f 3f
       -0.32092598 -0.091008514 -0.5523709 0.62475115
000140 71 22 52 bd 35 60 8f c0 30 41 23 bf 9d ce a9 bf
       -0.051302377 -4.480494 -0.63771343 -1.3266178
000150 31 fb c1 bf 51 ce 54 be 21 3d cf 3f 19 ef 2d 3f
       -1.5154783 -0.20781828 1.619053 0.6794296
000160 ed ed 65 3f 4d 53 20 c0 63 3e 6d bf 8d a5 82 3e
       0.8981617 -2.5050843 -0.9267332 0.2551693
000170 d6 b1 f7 bc ab 45 ec 3d 8d 9e b3 3f b7 93 59 3d
       -0.030236166 0.115367256 1.4032761 0.053119387
000180 09 5f 3c bf 21 9e 01 c0 8d d4 25 be 9d e7 37 3f
       -0.7358251 -2.0252764 -0.16194363 0.7183779
000190 99 92 0b bf 18 79 97 3e e8 6c c5 be ea 6e 5b bc
       -0.54520565 0.29584575 -0.3855965 -0.013393143
0001a0 f7 f3 17 bf fe 63 3f bf d3 6b 05 be 07 f6 98 3f
       -0.59356636 -0.7476195 -0.13029413 1.1950082
0001b0 83 53 26 3f 4d f7 33 3f 0c 4a a6 be 39 8d 2a 3e
       0.6497118 0.70299226 -0.32478368 0.16655435
0001c0 57 f5 90 3e e4 10 45 bf 8b 00 00 be ee a6 88 3f
       0.2831218 -0.769789 -0.12500207 1.0675943
0001d0 b9 43 a5 bd 55 e2 c8 bd fd e8 93 be 18 ca 6a bf
       -0.08069558 -0.098087944 -0.28888693 -0.9171462
0001e0 aa f2 88 3d 96 df 48 bf 28 85 2b bd f7 8f a7 3f
       0.066869095 -0.78466165 -0.041875035 1.309081
0001f0 84 92 c4 bd 67 a7 8d 3e 04 b3 fb be dc c0 8a 3d
       -0.09598258 0.2766678 -0.49160016 0.06775066
000200 c5 0c e7 3e 35 e3 68 bf 96 e3 e4 bd b5 5c a9 3f
       0.4512693 -0.9097169 -0.11176221 1.3231417
000210 92 d4 79 3e 0e dd 3d 3d 94 30 70 be 55 c0 9f be
       0.24397495 0.046353392 -0.23456031 -0.31201425
000220 73 93 a9 bd 23 dd 7c c0 58 93 21 bf 55 47 f7 be
       -0.08280077 -3.950997 -0.63115454 -0.4829661
000230 f0 76 49 3f e9 c1 94 bf 76 14 ee be 24 6b 21 3e
       0.7869711 -1.1621677 -0.46499985 0.15763527
000240 b6 f6 23 be bc 9d 5b bf a4 c9 c8 3e ab d7 d8 3e
       -0.16012082 -0.8578756 0.3921634 0.42352042
000250 17 33 47 3f ab 8a 33 bf 3e 8a b6 bf 7b f3 72 be
       0.7781233 -0.70133466 -1.4260938 -0.23725693
000260 40 47 16 3e 21 12 29 c0 28 59 06 bf c2 f7 b5 3f
       0.14675617 -2.6417315 -0.5247979 1.4216235
000270 35 f3 f6 bc 33 7d 91 bc 08 83 04 3e 3c 26 57 bd
       -0.030145267 -0.017759895 0.1294061 -0.052526698
000280 80 ed 19 bf db 28 23 c0 d2 4f 63 bd 56 14 63 3f
       -0.6012802 -2.5493686 -0.055496044 0.88702905
000290 e9 02 dd 3d 80 39 37 3e af e4 06 3e 1d c0 4a 3e
       0.10791571 0.17893028 0.13173173 0.19799848
0002a0 8c a4 74 3c 4e 5e 1e c0 42 08 b2 be e4 98 3e 3f
       0.014931809 -2.474506 -0.34771925 0.7445204
0002b0 c4 28 ec bd 88 c7 04 be 71 c0 76 3d 58 8b 4f be
       -0.11531213 -0.1296674 0.06024212 -0.20267999
0002c0 6d 7d 9c 3d 12 db 1a c0 49 4d 3c 3f b9 b2 7f bb
       0.076411106 -2.419621 0.7355543 -0.003901644
0002d0 1d da b5 bc 89 e1 a2 bf de 4c 86 be 46 ef ed be
       -0.022198731 -1.2725078 -0.2623052 -0.46471614
0002e0 23 2c eb be 92 12 a3 be cf 74 06 bf 20 2f ba 3f
       -0.4593211 -0.31850106 -0.52521986 1.4545631
0002f0 0e 8a a3 3e 3d 9a 1f 3f f4 43 e3 be 3e ad 0f 3e
       0.31941265 0.62344724 -0.44387782 0.1403093
000300 23 ac 86 3c d5 a4 41 bf 41 89 a1 bc d9 16 08 40
       0.016439503 -0.7564214 -0.019718768 2.1263945
000310 cc 79 4c 3f 78 6f db 3e ae aa dd be 0c 33 e0 3e
       0.7987335 0.4285848 -0.4329428 0.43788946
000320 e2 dd 37 3f 48 00 32 c0 b3 2b a6 3d 05 41 9b 3e
       0.7182294 -2.7812672 0.08113804 0.30323043
000330 6d 72 45 3e 84 c4 ed 3d b0 ef 99 bf 01 4b 1a bf
       0.19281931 0.11609748 -1.2026272 -0.60270697
000340 6c 0a b2 3e dd 38 75 bf 59 9c 73 bd fe 74 9b 3f
       0.34773576 -0.9578989 -0.059475277 1.2145078
000350 e2 76 7c 3f 8a fd 87 3e ba c8 a3 be 70 50 4c 3f
       0.986189 0.26560622 -0.3198908 0.7981024
000360 9d a0 2d 3f 49 5b 52 c0 1d 04 7d 3d 42 af a1 3f
       0.678232 -3.2868216 0.0617715 1.263161
000370 d4 7f e1 be 1d 9f 62 be fe 16 f5 be 9e 64 65 be
       -0.44042838 -0.2213101 -0.47869104 -0.22401664
000380 16 27 e9 bc cf 84 86 bf ec 84 92 3f 50 11 14 40
       -0.02846102 -1.050928 1.1446815 2.3135567
000390 ef 29 85 3f c3 2a f7 3e 35 0e 8b bf 33 1e 4e bd
       1.0403422 0.48274812 -1.0863711 -0.05032177
0003a0 57 8b c7 be 85 b4 71 bf ed 93 a5 3e 0f ca 13 40
       -0.38973495 -0.94416076 0.3233942 2.3092077
0003b0 37 07 1d 3f 11 bd 32 3e 78 91 10 bf ed 55 73 3e
       0.61339134 0.17454936 -0.5647197 0.23763247
0003c0 0b aa 14 bf 44 51 f6 bf 78 8d 5e bf 29 0a af 3e
       -0.58071965 -1.924355 -0.86934614 0.3418744
0003d0 89 3d 69 3f 67 76 ec 3e 9d 1d 5c 3e 6f 6c 77 3f
       0.9110952 0.46184084 0.21495672 0.9664983
0003e0 75 18 65 3f 99 25 e6 be aa 7d 07 bf f7 1e 01 3f
       0.89490443 -0.4495056 -0.52926123 0.50437874
0003f0 0f b1 6e bf 86 c1 23 bf b0 1f 5c be af 5a ac be
       -0.9323892 -0.6396717 -0.21496463 -0.33662936

eval_net.net.0.bias f4 [256]
000000 27 51 66 bf ad ea 9c bf eb 35 50 bf a0 6b 0a bf
       -0.8996758 -1.2259117 -0.8133227 -0.5407047
000010 de 92 18 bf 68 a2 38 bf 62 52 09 bf 10 52 5c bf
       -0.595991 -0.7212281 -0.5364133 -0.8606272
000020 7e b8 9c 3d 0b 61 91 bf 0d b0 27 bf 70 d9 49 bf
       0.076523766 -1.135774 -0.6550301 -0.7884741
000030 3e dc a6 bf 90 d2 ef be 17 05 52 bf 1d 46 5a bf
       -1.3035963 -0.46840334 -0.82039016 -0.85263234
000040 06 60 82 bf 30 80 a0 be 7d 02 fb be 5f ef b2 bf
       -1.0185554 -0.313478 -0.49025336 -1.39793
000050 14 01 90 bf f0 63 97 bf e1 b6 05 3d fc 5c eb be
       -1.1250329 -1.1827374 0.03264511 -0.4596938
000060 e3 cd 8c be 95 28 46 bf 45 f2 0a bf 53 4f b6 bf
       -0.2750083 -0.77405673 -0.54275924 -1.4242958
000070 7f 02 0a 3f d8 e3 82 bf 60 38 00 be 3f 13 82 bf
       0.5391006 -1.0225782 -0.12521505 -1.0162123
000080 0b f1 83 bf 15 75 7a bf 0c 21 4f bf 5a da 87 be
       -1.0307935 -0.97834903 -0.809098 -0.26533777
000090 f7 d8 17 bf c6 e2 90 bf 08 2e 7c be 73 95 c2 bf
       -0.5931544 -1.1319206 -0.24626935 -1.5201858
0000a0 be 7d cb bf 24 e7 7e bf 71 7f 2f bf fa 3b 3d bf
       -1.5897748 -0.9957144 -0.68553835 -0.7391964
0000b0 5d 41 03 bf 95 72 82 bf 95 6b 15 bf e5 a2 8a bf
       -0.5127161 -1.0191218 -0.5836728 -1.0830961
0000c0 d8 7f 45 bf c1 26 86 bf e8 4e aa be 6a 4f 8f bf
       -0.771482 -1.0480577 -0.33263326 -1.119611
0000d0 95 8d 9d bf 32 4a df be a7 3a 80 bf 64 af 6b bf
       -1.2308832 -0.43611294 -1.0017899 -0.920645
0000e0 7d 9c 99 bf 05 61 00 bf e8 28 27 bf 87 4e 42 bf
       -1.2000881 -0.5014804 -0.65296793 -0.75901073
0000f0 fe da 7d bf e9 0e 93 bf da 90 06 bf e1 0c 04 bf
       -0.9916228 -1.1488925 -0.52564776 -0.5158215
000100 7f 7a b1 bf 30 56 22 bf ae 15 37 bf 8f 1e d0 bf
       -1.3865508 -0.6341276 -0.71517456 -1.6259326
000110 ad c9 30 bf 43 1d 2c bf a2 1f 29 bf 27 da 0a bf
       -0.6905773 -0.6723215 -0.6606389 -0.54239124
000120 27 70 4b bf 30 0a 0c bf 02 0b 4c bf 0d 05 8d bf
       -0.79468006 -0.54703045 -0.79704297 -1.1017166
000130 29 77 7e bf bd c9 17 bf 2e 55 37 bf ce 2a 45 bf
       -0.99400574 -0.59292203 -0.7161435 -0.7701844
000140 2f ba 19 bf f4 4b a8 bf 31 2a 65 bf 79 48 da be
       -0.6004972 -1.3148179 -0.89517504 -0.42633417
000150 fe 68 2c bf f6 78 1f bf 0b b3 9b 3e 9f 1c ed be
       -0.67347705 -0.62293947 0.30410036 -0.463109
000160 81 07 2a bf 0d 0b 5c bf 4c 27 8f bf 81 aa 64 3e
       -0.664177 -0.8595436 -1.1183867 0.22330667
000170 3d 95 b7 bf 02 da f5 3f 89 fe 54 bf 0a 5f 1c be
       -1.4342419 1.9207156 -0.8320089 -0.1527063
000180 77 22 3a bf 09 b6 7a bf bd 45 4e bf e1 b9 39 bf
       -0.7270884 -0.97934014 -0.8057516 -0.72549254
000190 f3 56 1c be a3 94 bd be e7 de ce bf 35 c8 61 bf
       -0.15267543 -0.37027463 -1.6161774 -0.88196117
0001a0 0c d2 8a bf 29 66 eb be 2b ca 0b bf 4d 9d 94 bf
       -1.0845351 -0.4597638 -0.5460536 -1.1610504
0001b0 3d 46 97 bf 4e 66 0e bf 7f ea d5 be c3 11 bf be
       -1.181831 -0.55624855 -0.4178047 -0.3731824
0001c0 e1 6c 38 bf cb 7b d8 3e 53 c5 ee be 69 07 c0 be
       -0.72041136 0.42281947 -0.4663492 -0.37505654
0001d0 71 fa 4c bf 24 30 97 bf e5 ce 98 bf 25 b9 44 bf
       -0.80069643 -1.1811566 -1.1938139 -0.7684501
0001e0 34 3b 63 bf 20 57 49 bf e8 e9 3e bf b4 11 43 bf
       -0.8876221 -0.7864857 -0.7457566 -0.7619889
0001f0 83 2a 86 bf 09 6f 92 be 1b 4d f9 be 05 c1 ec be
       -1.0481724 -0.28600338 -0.4869164 -0.46241012
000200 1c 25 68 bf 27 e6 87 bf 7c f7 ac bf 60 28 51 bf
       -0.90681624 -1.0617112 -1.3513026 -0.8170223
000210 ec f8 9b bf 90 4b a5 bd bb 20 1a bf 05 8f 33 bf
       -1.218534 -0.08071053 -0.6020619 -0.70140105
000220 19 3c 02 bf bc 64 0f bf fc f1 8b bf 2c 3f 7e bf
       -0.5087295 -0.56013083 -1.0933223 -0.9931514
000230 71 a0 90 bf 44 45 1c bf f8 cc 8d bf 0e 5f 87 bf
       -1.1298963 -0.6104319 -1.1078176 -1.0575883
000240 6d 21 6c bf 8c d8 0d be 71 60 60 bf 6a d8 cb be
       -0.92238504 -0.13852137 -0.8764716 -0.39813548
000250 78 79 74 bf 44 f4 a6 bf cc bd 78 bf f8 4f 26 bf
       -0.95497847 -1.3043294 -0.9716461 -0.6496577
000260 3a c0 61 bf 7d 1c 9e bf ed c0 21 3f d4 c2 70 bf
       -0.8818394 -1.2352444 0.63185006 -0.94047284
000270 62 dc 8f bf 43 6f 05 bf 20 57 c4 bf bb 1f 48 bf
       -1.123913 -0.52122897 -1.5339088 -0.78173417
000280 ef cf 1e bf 24 be 84 bf 07 d3 a0 bf e7 80 d3 be
       -0.6203603 -1.0370526 -1.25644 -0.41309282
000290 fa 46 54 bf 8f 78 ed be 4e 3b 8b bf 33 b4 44 bf
       -0.829208 -0.4638104 -1.0877473 -0.7683746
0002a0 54 a9 c6 be 62 42 54 bf c6 16 ee be c0 db 87 bf
       -0.38801062 -0.8291379 -0.4650175 -1.0613937
0002b0 08 d1 41 bf 58 28 37 be 37 31 6a bf f7 ab 40 bf
       -0.7570958 -0.17886484 -0.91481346 -0.752624
0002c0 89 7c 2e bf e1 8f b6 bf e6 90 f9 3f ec e1 22 bf
       -0.68158776 -1.4262658 1.9497344 -0.6362598
0002d0 f3 46 ad be df 76 b0 be 0e 27 44 bf c5 e2 c0 be
       -0.33843192 -0.3446569 -0.7662209 -0.3767301
0002e0 6c 02 5a bf 8b 10 22 bf 1d c3 da be 8d 4a 7f bf
       -0.85159945 -0.6330649 -0.42726985 -0.9972313
0002f0 02 78 c0 be 65 f0 75 bf ae 91 3d bf 0a 82 90 3e
       -0.3759156 -0.9606994 -0.74050415 0.28224212
000300 73 be 21 bf 32 70 36 bf ed fe 88 3f c9 35 02 bf
       -0.6318123 -0.71264946 1.0702797 -0.5086332
000310 45 52 54 bf 4a a7 63 bf 9f 5c 9c bf 96 e3 3a bf
       -0.82938033 -0.8892714 -1.2215766 -0.7300352
000320 d1 7f 7c bf f3 15 3c bf 0f 7e 93 bf 4a d0 94 bf
       -0.9863253 -0.7347099 -1.1522845 -1.1626065
000330 c3 64 0f bf 36 ed 0c bf e9 ac 2e bf db 54 06 bf
       -0.56013125 -0.55049455 -0.6823259 -0.5247323
000340 9c fb 4a bf 0f e7 45 bf 37 74 58 bf c0 49 91 bf
       -0.79290175 -0.7730569 -0.8455233 -1.1350632
000350 96 ff 4b bf e9 cf 8f be 55 e6 55 bf 9c 73 f5 be
       -0.7968687 -0.2808831 -0.83554584 -0.47939765
000360 e8 48 fb be fb 5c 4f bf 5b e3 3c bf c5 6d 6a bf
       -0.4907906 -0.8100125 -0.73784417 -0.91573745
000370 6f ea ac be ad 66 b6 be 50 45 09 bf 97 7a a6 be
       -0.3377261 -0.3562521 -0.5362139 -0.32515404
000380 02 b3 16 bf 05 74 81 bf 85 ca 8c bf 85 ed 5f bf
       -0.58866894 -1.0113531 -1.0999304 -0.874718
000390 9f 87 ac 3f da 24 c3 3f c6 08 a1 bf 2c 53 0b bf
       1.3478888 1.5245621 -1.2580802 -0.54423785
0003a0 a4 0e 35 bf 9c 02 e0 3e 40 f2 91 bf e9 2a 51 bf
       -0.70725465 0.4375199 -1.1402054 -0.817061
0003b0 94 e3 1e bf bc 75 2f bf 38 a8 1a bf cf 7f e6 be
       -0.62066007 -0.68539023 -0.6041293 -0.45019385
0003c0 e8 0f 51 bf a5 a3 1c bf 23 29 80 bf eb cb 41 bf
       -0.81664896 -0.611872 -1.0012554 -0.7570178
0003d0 47 f8 36 bf 57 b9 09 bf 57 67 9a be 83 f1 5e bf
       -0.7147259 -0.5379843 -0.30156967 -0.8708727
0003e0 2a 1f d2 bf ad be 44 bf 3e 57 0f 3e 07 c0 3c bf
       -1.641576 -0.7685345 0.13998124 -0.7373051
0003f0 8f ce 82 bf ff 71 75 be 5e 8e 93 bf c6 5e 9a bf
       -1.0219287 -0.23969267 -1.1527822 -1.2060173

eval_net.net.2.weight f4 [256, 256]
000000 7b 5b 09 bd ce e4 cd bd 50 b4 2c bc 56 7f 8f bd
       -0.03353451 -0.10053407 -0.010541037 -0.07006709
000010 c0 e5 cc bc d0 23 0e bc 58 28 79 bc d1 61 93 bc
       -0.025011897 -0.008675531 -0.015207373 -0.017990978
000020 10 a2 26 3c 00 f8 50 bb 7c af 04 bc a0 b6 4c bc
       0.010170475 -0.00318861 -0.008098479 -0.012494713
000030 69 cf b4 bc eb c6 5f 3d f0 a9 62 bc e6 2a c0 bd
       -0.022071557 0.054633062 -0.013834462 -0.09383182
000040 24 99 b7 bb 7e 2f 19 bd af 72 a9 bd f0 60 c0 bd
       -0.0056029726 -0.037398808 -0.08273827 -0.09393489
000050 01 00 aa bd b0 bc 7a bc 3e 05 31 3d 94 23 7c 3d
       -0.08300782 -0.015303776 0.04321789 0.061557367
000060 e3 e2 fb bd 40 8d 92 bc 20 8e 93 3b 60 9a b7 3b
       -0.122991346 -0.017889619 0.0045030266 0.0056031197
000070 13 6c 6a bd ae f2 d0 bd ce c4 f2 bc a8 09 4b 3d
       -0.057231974 -0.102025375 -0.02963486 0.049569756
000080 40 91 be bb e0 5a 57 3d ad 19 bf bd 28 e6 3b 3d
       -0.005815655 0.0525769 -0.09331069 0.04587379
000090 74 9b 0a bd f6 90 38 bc dc 7c df bc a4 7a 86 3c
       -0.033839658 -0.01126503 -0.027281217 0.016415901
0000a0 70 84 01 bd 46 30 0e bd d8 13 c3 bd cc 67 79 3d
       -0.031620443 -0.034714006 -0.09525269 0.060890004
0000b0 00 10 79 3a 40 d8 95 bc 84 84 24 bd d0 1a fa bd
       0.00095009804 -0.018291593 -0.04016544 -0.12212145
0000c0 b2 4e 4a bd 82 f1 7b bd 14 bd 68 bd 6c ac 25 bd
       -0.049391456 -0.061509617 -0.056820944 -0.040447637
0000d0 f4 97 81 3c 64 16 3f 3d 10 38 e2 bc c0 00 1c 3b
       0.015819527 0.046652213 -0.027614623 0.0023804158
0000e0 60 29 2e 3b 10 0c 52 bd ec 8f c5 3a 20 2d 0f 3c
       0.0026574954 -0.051281035 0.0015072799 0.008738786
0000f0 2f c8 d6 bd 12 ae 49 3d 50 a6 2f bc 4f 6a 90 bc
       -0.10487401 0.049238272 -0.010720804 -0.017628817
000100 53 04 ec bb ee 53 60 bc 9c 65 05 bd 80 f6 cb 3c
       -0.007202664 -0.013691885 -0.032567605 0.024897814
000110 c0 7a 7d bc 40 2b 64 3b ec 2e c5 bd 18 37 39 bd
       -0.01547116 0.0034815818 -0.0962809 -0.045218557
000120 d0 92 6b 3d 6c a7 14 3d 00 51 f0 bc 6a f1 4f bd
       0.05751306 0.03629248 -0.029335499 -0.05076734
000130 34 85 fc 3c ec e1 7d 3d 1d 24 25 bd 1a 7f bf bd
       0.030825235 0.061983034 -0.040317643 -0.093504146
000140 e9 ba 98 bd 91 5f ea bd e4 3f bf bb 7c 5e 2a bd
       -0.07457525 -0.11444009 -0.005836474 -0.041594014
000150 f8 4a e8 bd 44 74 a0 3c 1f 98 01 be b6 90 c7 bd
       -0.11342424 0.01958669 -0.12655686 -0.09744398
000160 f1 c7 7f bd 10 76 bb bc 34 86 83 bd 8e 2a df 3d
       -0.06244654 -0.022883445 -0.064220816 0.108967885
000170 75 66 95 bd bf 4c 6f bd 84 fe 1a bc 43 2c be bd
       -0.07294933 -0.0584228 -0.009460095 -0.09285786
000180 80 47 0f bb 4f ed 1e bd c9 10 69 bc f6 1c 97 bd
       -0.0021862686 -0.038800534 -0.014225193 -0.07378571
000190 6e c6 42 3d b3 56 58 bd a0 c6 cb 3b 9d 41 6b bd
       0.04755252 -0.052817058 0.0062187463 -0.05743562
0001a0 f8 af 13 bd bd 19 85 bd 0f 08 e5 bd 22 73 0e bd
       -0.03605649 -0.0649905 -0.11183178 -0.034777768
0001b0 05 e3 3f bd d9 d3 e8 bd 78 48 ac bd 02 28 5f bd
       -0.046847362 -0.11368532 -0.0841226 -0.054481514
0001c0 42 c0 b8 bb e0 19 e5 3c 60 4c 39 3d 38 d9 27 3c
       -0.0056381533 0.02796644 0.045238853 0.01024466
0001d0 aa 9e 64 bd 77 0a c4 bd e1 7a 02 be 3e f6 7c 3d
       -0.055815376 -0.095723085 -0.12742187 0.061758272
0001e0 27 e2 1c bd b2 61 ba bc 94 21 9a bc 87 1a 99 bd
       -0.038301613 -0.022751663 -0.01881484 -0.07475763
0001f0 98 9f db bc 6a 70 3e 3d 14 9e 62 3d 3e a5 19 3d
       -0.026809499 0.046493925 0.055326536 0.037511103
000200 c8 0c 8e bc 40 1b d4 bd c5 5e 02 be 28 11 93 3c
       -0.017340079 -0.1035676 -0.12731464 0.017952517
000210 d0 57 a2 bc 36 eb 02 3d 42 f0 f6 bc 6b 43 ef bd
       -0.019817263 0.031962596 -0.03014386 -0.11682781
000220 1f 1a 8d bd 1b 0e d5 bd d8 3d 00 3c 01 f9 f1 bd
       -0.06889748 -0.10403081 0.007827245 -0.11815072
000230 a9 16 ba bd 61 b6 c8 bd 39 48 cb bd 2e 2c e3 bb
       -0.09086353 -0.09800411 -0.09925885 -0.006932757
000240 44 a3 06 3d 32 ac 6a 3d 0c a2 95 3c 70 ff 7c bd
       0.032870546 0.057293124 0.018265747 -0.06176704
000250 99 3b 01 be 40 9f ee bb b8 70 8d 3c e8 b1 33 3c
       -0.12620391 -0.0072821677 0.017265663 0.010967709
000260 ae 5b 65 bc 01 46 c3 bd c0 74 a3 3b 5c 07 a0 bc
       -0.013998909 -0.095348366 0.004988283 -0.01953476
000270 cc f3 1e 3d 60 c4 2f bd f6 da 25 3d 4f c9 58 bc
       0.03880672 -0.042911887 0.04049202 -0.013231589
000280 2a 29 f1 bd cc 11 b9 bc 44 8c 8b bc ec dc 80 bc
       -0.117754295 -0.022591494 -0.017034657 -0.015730344
000290 78 d2 f1 3c 80 aa a1 bc 68 6a 10 bd 4a 98 fc bd
       0.029519305 -0.019734621 -0.035257727 -0.12333734
0002a0 1a d9 23 3d 5a 18 4e 3d 00 77 94 bc 5f c3 c7 bc
       0.040001966 0.050316192 -0.01812315 -0.024385152
0002b0 30 b8 3a bc 4f 82 23 bd 94 60 a1 bc 46 63 c6 bd
       -0.011396453 -0.039919194 -0.019699372 -0.09686904
0002c0 e6 4f 44 bd 8c 7b 70 3d 9b 61 02 be 81 61 5b bd
       -0.04792776 0.058711573 -0.12732546 -0.053559784
0002d0 3c 70 71 bd 30 08 28 bd 29 7e 8c bd fb 11 5c bd
       -0.058944926 -0.041023433 -0.06860001 -0.053728085
0002e0 65 dc ad bd 6d 39 95 bd 70 e4 f9 bc cc 3c 85 bd
       -0.084893025 -0.07286344 -0.030504435 -0.06505737
0002f0 42 82 b6 bc 24 11 1f bd b8 9a 3a bc 8d c7 dd bc
       -0.022278909 -0.038834706 -0.011389427 -0.027072692
000300 42 1a bf bd a0 04 d5 bb 83 0d c5 bd e0 bc 26 3d
       -0.0933118 -0.0065007955 -0.09621718 0.04070747
000310 cc 89 ea bc 9f 04 b6 bc 48 17 31 bc 20 9b 47 3b
       -0.02863016 -0.022219 -0.010808773 0.0030457452
000320 c6 71 03 bd 0e d0 2c bd 91 49 ed bc e0 99 77 3c
       -0.032090925 -0.042190604 -0.028965743 0.01511237
000330 c4 78 88 bd 0f bc e6 3d 85 f0 ef bd 20 5c c8 3b
       -0.06663659 0.11266338 -0.11715797 0.006114498
000340 14 53 50 bd ce 0f 03 bd c2 0d 17 bc ec 6b fd bc
       -0.05086048 -0.031997494 -0.009219589 -0.03093525
000350 f0 3c 68 bc 00 9f a3 bc 8e 88 68 3d cb 3e 90 bd
       -0.014174685 -0.019973278 0.056770854 -0.07043227
000360 57 46 34 bd f8 cb e1 3c 25 67 5c bc da f9 c4 bc
       -0.044012394 0.02756308 -0.013452326 -0.02404492
000370 50 b1 0b 3d 17 4a d5 bd 99 4e bd bd d4 68 be bc
       0.034104645 -0.10414522 -0.09243507 -0.023243345
000380 ac c3 2d bd 04 a7 71 bd 80 25 f5 bb 60 b6 58 bb
       -0.042422935 -0.05899717 -0.007481277 -0.0033067688
000390 f4 d6 00 be 64 5f 9b bd fe 8b a9 bc 75 4b 96 bd
       -0.12581998 -0.07586554 -0.020696636 -0.07338611
0003a0 42 d7 5c 3d f0 48 4c 3c ed 45 e9 bd 16 01 87 bd
       0.053916223 0.0124685615 -0.113902904 -0.06592004
0003b0 6a b5 9b bd 4e 8a 74 3d 30 3e 75 bd ee d7 77 3d
       -0.07602961 0.05970221 -0.05987376 0.06050866
0003c0 7c 1f 6c bd 0a b6 ec bc 44 44 73 bd b0 a1 b3 3b
       -0.057647213 -0.028895397 -0.059391275 0.005481921
0003d0 f7 dd f0 bd 1b 45 a7 bd 80 cb c6 bd 66 22 2d 3d
       -0.117610864 -0.08167478 -0.09706783 0.042269133
0003e0 c4 23 8a 3c 0d da a5 bd f6 21 57 bc bc 10 c0 bd
       0.016862758 -0.080982305 -0.0131306555 -0.09378192
0003f0 e0 9c 63 3d 34 79 eb 3c 8d e1 d1 3d 84 50 81 3c
       0.05556953 0.028744318 0.102480985 0.015785463

eval_net.net.2.bias f4 [256]
000000 d7 31 aa bd b1 2f d2 3d 8b 01 ee 3d b5 ee 52 bd
       -0.083102874 0.10263003 0.11621388 -0.05149718
000010 38 b4 95 bd 78 7c 8a be 1f 71 1f bc d9 98 97 be
       -0.073097646 -0.27048087 -0.00973156 -0.296088
000020 fd 7b ac be d7 ff 4e be fa 07 d8 bd 76 95 a6 bd
       -0.33688346 -0.20214783 -0.105483964 -0.08133976
000030 cc ca 9c be 88 70 61 bc 5f 9b e1 be b1 bb ee bd
       -0.30623472 -0.01375974 -0.4406385 -0.11656893
000040 d7 ed 9b be c7 03 19 bf 64 be b6 bd 67 71 14 bf
       -0.30454895 -0.5977139 -0.08923033 -0.5798554
000050 ed de 5c bf 0a e3 64 be 34 90 82 be d4 fa a5 be
       -0.8627766 -0.22352234 -0.25500643 -0.3241793
000060 b9 c8 8a bd d4 84 63 be 2b 0b 40 bd 99 3c 5c bc
       -0.06776566 -0.22218639 -0.04688565 -0.013442182
000070 68 a2 df bd 2a ed 90 be fe ba 27 bd c3 09 67 bb
       -0.109196484 -0.28305942 -0.040949814 -0.0035253621
000080 38 46 bc be a3 df 85 be 93 cf cd be 69 3a 95 be
       -0.36772323 -0.26147184 -0.4019743 -0.29146126
000090 ce 79 9f bf e5 3d c9 be 5e 97 78 be 5c d2 b6 be
       -1.2459047 -0.39305034 -0.24276492 -0.35707366
0000a0 89 43 b9 bd fe 96 8b be 06 ff 48 bf cd 8f f8 bb
       -0.090460844 -0.27263635 -0.78514135 -0.0075855018
0000b0 94 cc 2a bd 7c 6b 3b be 0c 27 8b be 5e be 93 be
       -0.041699007 -0.18302721 -0.27178228 -0.28856176
0000c0 39 20 23 3f 38 06 ca be d7 a5 39 be b1 ee db 3e
       0.6372104 -0.3945787 -0.18129669 0.42955545
0000d0 b2 83 54 be dc 0e 22 3d 4a 98 fa bd 4c c3 e8 bd
       -0.20753363 0.039564952 -0.12236078 -0.11365375
0000e0 6a a6 d8 be eb 7b ac bd 8b 94 4a bf 2b 7d 95 bd
       -0.42314464 -0.08422073 -0.7913291 -0.072992645
0000f0 bb ed 45 bf 67 a0 32 bf 51 10 be bd b3 02 de bd
       -0.7731587 -0.69776005 -0.09280456 -0.108403586
000100 58 d9 01 be c2 e9 89 be 9f e6 4c bd 64 08 5e bf
       -0.12680566 -0.26936156 -0.050024625 -0.86731553
000110 be 62 81 bd e7 8d 64 be 67 16 86 bd 65 91 53 be
       -0.06317662 -0.22319756 -0.06547242 -0.20660932
000120 9d 8b 90 bd 26 83 bb bd 74 b9 3c bc 2a 15 cd bd
       -0.07057879 -0.09155874 -0.011518825 -0.10013802
000130 3e d2 d7 bc ab 3b 70 bf b1 17 b2 be 16 a7 48 bd
       -0.026345368 -0.93841046 -0.347837 -0.04898747
000140 c8 22 53 bd 40 c8 44 be 33 ba 1a be ad bd c8 be
       -0.05154684 -0.19217014 -0.15110092 -0.3920721
000150 68 f5 bf bc 1d 4d 84 be c8 db 34 be 0a fa 11 bf
       -0.023432449 -0.25840083 -0.17661965 -0.57022154
000160 1e 04 05 be 02 07 43 be 20 68 f2 bc 02 cd 6a be
       -0.12989852 -0.19045642 -0.029590666 -0.22929767
000170 a2 af ab 3e 25 57 8a be 7b e9 54 bf fb bd d9 be
       0.33532435 -0.2701961 -0.8316876 -0.42527756
000180 25 8f dd bc c6 e4 97 be 99 ee a6 bd a2 2e 5a bd
       -0.027045796 -0.29666728 -0.08150978 -0.05326713
000190 15 b2 fa bd 59 4c f5 be f4 08 d2 3e dc 82 e6 be
       -0.12240998 -0.4790981 0.41022456 -0.45021713
0001a0 b4 d8 25 bd 3b c8 cc be ef 1b 71 bd f4 72 4c bc
       -0.040489867 -0.39996514 -0.05886453 -0.012478579
0001b0 70 6f 9a bd 5f f1 ea ba a4 14 3e bf 3b 7d 68 be
       -0.07540786 -0.0017924717 -0.74250245 -0.22704022
0001c0 ec c6 87 be fa 45 fc bc bc 60 c5 be 7b 63 f5 bc
       -0.26518953 -0.030795086 -0.38550365 -0.029954663
0001d0 6d 52 1a bd 7e 1f a4 be 36 5c 96 be 84 9a e7 be
       -0.037676264 -0.32055277 -0.29367226 -0.45235074
0001e0 e8 e1 81 be 04 e9 fa 3e f9 48 da be 34 bb 25 bd
       -0.25367665 0.49005902 -0.426338 -0.040461734
0001f0 1a 4e aa be 4c af e7 bd 66 ad 22 bd 70 dc f6 be
       -0.33262712 -0.11312732 -0.039716147 -0.48215055
000200 91 5b 27 bf 53 c2 c9 be 21 21 88 be fc 04 da bd
       -0.65374094 -0.3940607 -0.26587775 -0.10645482
000210 af ad b1 be a5 9f 7e be ef f4 b1 bd ab 83 af be
       -0.34702823 -0.24865587 -0.086892955 -0.34280142
000220 7c 91 cb bd fe 7d 41 bd 26 e5 93 bd b4 a1 84 be
       -0.09939858 -0.047239296 -0.07221441 -0.2590462
000230 2e 8b b1 3e 2f 8d 15 be 42 1a a5 bd 29 5d 78 be
       0.34676498 -0.14604639 -0.08061649 -0.24254288
000240 0a 5b f3 be 71 62 58 bd 6a 26 88 bd 68 d7 88 be
       -0.47530395 -0.052828256 -0.06647952 -0.26726842
000250 45 4e 96 be d2 f1 8d be 77 54 ac be 91 43 d6 be
       -0.2935659 -0.27723557 -0.33658192 -0.41848424
000260 15 89 a8 bd 44 d5 aa be cb 6e a1 bd 06 f6 3f be
       -0.08229271 -0.33365834 -0.0788246 -0.18746194
000270 70 5b a8 bd 5e 0d 05 bf 41 0e 88 bd 5d 27 44 bd
       -0.08220565 -0.5197352 -0.06643344 -0.047889102
000280 22 4e f4 bd 5a b8 61 be aa e4 24 bd 8d c3 ad bc
       -0.11928965 -0.22042981 -0.040257134 -0.02121141
000290 87 33 df bd 1c 4c 95 be c2 cc 92 be ce a8 c0 be
       -0.108985 -0.2915963 -0.28671843 -0.37628788
0002a0 24 81 c0 bd 07 20 07 bd c9 37 82 bd 0e 7b 2d bc
       -0.093996316 -0.032989528 -0.063582964 -0.010588421
0002b0 e8 5d 63 bd 56 cf 54 3e 67 0d 00 be 9a 12 f1 bd
       -0.055509478 0.20782217 -0.12505113 -0.11771126
0002c0 8e 1f 4f bf 63 de e2 bd 35 cf a9 bd eb 90 0d bd
       -0.80907524 -0.11077573 -0.08291475 -0.034562033
0002d0 af a7 f1 bd 67 10 1f bf 6a 2d f2 bd 9b 1c 99 be
       -0.11799561 -0.62134403 -0.11825068 -0.29904637
0002e0 9d 78 ad be eb 0b bd bd 06 b0 c3 bd 8b e6 00 be
       -0.33881083 -0.09230789 -0.09555058 -0.12587945
0002f0 be 23 97 be 5d 54 bf be d9 66 1b be 1f 3c f5 bd
       -0.29519457 -0.37369052 -0.15175952 -0.11974358
000300 aa bc 32 bc af 9a 4e be b7 d1 58 bd 7c 67 bf bd
       -0.010909239 -0.20176195 -0.052934375 -0.0934591
000310 a8 f5 12 be 83 bc 21 be 53 ed a7 bd e7 0a ca 3c
       -0.14351523 -0.15794568 -0.08199563 0.024663402
000320 6b 76 8e be a7 03 d1 be 08 6e e8 be 4f 3d 7e be
       -0.2782472 -0.408231 -0.45396447 -0.24828075
000330 22 39 1c be 56 b7 86 be 17 ba 84 bf d0 ea 9a be
       -0.1525617 -0.2631175 -1.036929 -0.30257273
000340 22 3d 61 be 65 0e 8b be dd 89 ad be 96 45 09 be
       -0.21995977 -0.2715942 -0.33894244 -0.13405451
000350 1e 12 e1 bd ae b2 1f bf 9c 66 f9 be 2b 8b bc be
       -0.10989784 -0.6238202 -0.48711097 -0.36824927
000360 45 31 04 be d1 86 fe bd f9 d0 d0 bc ac 08 c0 bd
       -0.1290942 -0.12428058 -0.02549027 -0.09376654
000370 de 13 e9 bd 26 da df be 60 5d 2e be 69 2d 6e be
       -0.113807425 -0.43721122 -0.17027807 -0.2325951
000380 12 98 bb bc 31 38 2a bf f7 8e 02 bf 4f f0 cd bd
       -0.022899661 -0.6649199 -0.509994 -0.10055601
000390 b4 c6 97 bd 3b 92 41 bf bf 46 e4 bc 15 67 05 bf
       -0.074109465 -0.75613755 -0.027865766 -0.52110416
0003a0 b6 36 b0 bd 8e fc 9c be 9c ff 1a 3e 84 00 57 be
       -0.08604185 -0.30661434 0.1513657 -0.2099629
0003b0 80 83 4f bf 1e d9 f6 bc 44 6a 83 bb ee 5e 48 3f
       -0.8106003 -0.030132826 -0.0040104706 0.7826985
0003c0 55 0a 99 be 09 49 74 bd 6a 8e ae be ae 31 e0 bd
       -0.29890695 -0.059639964 -0.34093028 -0.10946976
0003d0 9e 56 8e be 73 f1 64 3e b4 1d 21 be 35 fb 1f be
       -0.2780046 0.2235773 -0.15733987 -0.15623172
0003e0 50 e5 bc be e9 3f 83 be 7d 35 1c be 65 31 92 be
       -0.36893702 -0.25634697 -0.15254779 -0.2855331
0003f0 ff ac 2d be 1f f6 31 be 4b 6d d7 bd 2a 30 67 be
       -0.16960524 -0.17379044 -0.10518893 -0.22576967

eval_net.net.4.weight f4 [4, 256]
000000 de 56 2a 3d cb ee 7c be d3 18 96 bd a8 7e 49 be
       0.04158675 -0.24700467 -0.073289536 -0.19677222
000010 d4 9e 7f bd 54 c8 80 3e 8b ee a2 bc de 5e cf 3d
       -0.06240733 0.25152838 -0.019889137 0.10125516
000020 06 ef 42 3f a5 0f 7a 3e 1c d5 02 3d 3e cc 0b bd
       0.7614597 0.2442003 0.03194152 -0.034130327
000030 53 03 fb bd 68 db e2 3c db 7a e3 3e ac 85 2d bd
       -0.122564934 0.027692512 0.4442967 -0.042363808
000040 de d0 0d bd ef fb cb 3e 6d be 3a bd 53 f4 8d 3e
       -0.03462302 0.39840648 -0.04559176 0.27725467
000050 fb e4 2f bd 97 22 b6 be 30 48 8d 3e 85 32 7e 3e
       -0.042942982 -0.35573265 0.27594137 0.24823959
000060 39 e1 08 3d 25 aa b6 3b fa ba 7b bc f7 84 12 bd
       0.033417914 0.005574482 -0.015364403 -0.035771336
000070 cc 43 05 3d ba 85 76 be e8 50 84 3d df ae e0 bc
       0.03253536 -0.2407445 0.06460744 -0.027427135
000080 3b 50 b2 be 23 27 aa be d7 9a 29 3e 70 83 6a be
       -0.34826836 -0.33232984 0.16562973 -0.22901702
000090 da 51 d7 3c 39 6e dc bc cc 57 4f 3e be c7 79 3e
       0.026284147 -0.026908027 0.20248336 0.24392602
0000a0 91 2a fa ba 01 da f9 3d 10 c5 bf 3d 36 95 1f bf
       -0.0019086172 0.12199784 0.093637586 -0.6233705
0000b0 8f 69 ee 3c 2c c8 60 3f 2f a3 67 bd 40 66 35 bb
       0.029103069 0.8780544 -0.05655211 -0.0027679354
0000c0 3c c5 ed 3e 41 9d 8e 3e 21 06 42 bc 5f 8e 4a 3f
       0.4643954 0.2785435 -0.011842282 0.7912349
0000d0 04 76 c6 3d 35 3c 65 3e dc b1 66 bc 63 e7 01 bd
       0.096904784 0.22386248 -0.014080491 -0.03171481
0000e0 f4 f2 20 3e 07 cd 95 bd 39 dd e2 bd 17 7b 4a bb
       0.1571768 -0.073144965 -0.11077351 -0.0030896121
0000f0 1a 55 59 3d c9 21 bf 3e c8 b8 34 3b 3c 73 2b be
       0.053059675 0.37330464 0.0027575959 -0.16743177
000100 19 f2 5e bd 1d 35 c2 bc 8a ca 0d 3d fe 61 80 3e
       -0.0544301 -0.023706967 0.034616984 0.25074762
000110 02 42 2a bc 71 9b 27 be 63 2c f7 bc 66 7f 0a 3f
       -0.010391714 -0.1636789 -0.030172532 0.54100645
000120 35 21 0f be 61 d2 b5 bd 9f 6e 9e bd 1d 13 fd 3c
       -0.13977511 -0.08878017 -0.07735943 0.030892903
000130 c6 4b 07 3d c4 a6 02 3e 75 79 99 be 29 08 d1 3c
       0.033031248 0.12758929 -0.29975477 0.025516586
000140 43 45 c7 3c 0e 45 e2 3e 7e fc df bc bc e5 b8 3c
       0.024325019 0.4419331 -0.027342077 0.022570483
000150 d6 9f 90 3c e8 1f 9d 3c c7 71 92 be b2 1c 2c 3d
       0.01765434 0.019180253 -0.2860243 0.042019553
000160 57 06 53 3e f0 88 7b 3e 8a 8a 9c 3e d8 15 51 bd
       0.20607887 0.24563956 0.30574447 -0.051046222
000170 08 59 72 bf 6a e3 83 3e 7e 4f 94 be 03 07 c4 bd
       -0.946671 0.2575944 -0.28966898 -0.0957165
000180 5c 76 2a bf 18 e4 bd 3c 0d f0 c5 3d 2f 4a 26 3d
       -0.6658685 0.023180053 0.09664927 0.04059809
000190 39 36 4a bc 6c f4 22 3f d4 ad 33 3f e3 f0 23 be
       -0.012342029 0.6365421 0.70187116 -0.1600986
0001a0 9d 88 8f bd 3b b5 00 be 94 40 ce bd b8 ed 12 3d
       -0.07008479 -0.12569134 -0.10070911 0.035871238
0001b0 dd 22 bf bb 08 76 1f bd 01 df eb 3e f7 09 61 3e
       -0.0058330134 -0.038930923 0.46068576 0.21976458
0001c0 10 43 84 3e a4 1f 32 3c 83 bb 7d 3e b7 7c 4c 3d
       0.25832415 0.0108718015 0.24778561 0.049923625
0001d0 28 c1 83 3c a2 be 7a bb 29 08 af be b1 04 7a be
       0.016083315 -0.0038260599 -0.34185913 -0.24415852
0001e0 74 7c 37 3e 38 df c4 3f 64 5d 36 bf ec 8b 90 bd
       0.17918569 1.5380621 -0.7123625 -0.07057938
0001f0 74 2d ec bd d5 a5 70 bd 21 77 3d 3b cd 64 2e 3e
       -0.11532107 -0.0587519 0.0028910118 0.1703064
000200 58 50 69 3f 7b d8 80 3d 11 45 67 bd a0 23 55 bb
       0.9113822 0.062912904 -0.05646235 -0.0032522455
000210 10 84 5f 3d 71 bb b2 bd 92 e9 0c 3d da 18 ff 3b
       0.054569304 -0.08727158 0.034402438 0.007784945
000220 51 ac 5c bb f0 be 86 bb a1 10 f7 bc 0a ce 00 3e
       -0.0033672045 -0.004112117 -0.030159296 0.12578598
000230 89 c1 02 3e 90 a7 30 bd d1 7a 7a 3c d8 94 03 bc
       0.1276914 -0.04312855 0.015288071 -0.008031093
000240 91 22 c9 be b3 96 61 bd e4 e2 97 3d 63 6d f1 3d
       -0.39284185 -0.05507536 0.07416323 0.11788442
000250 37 87 02 bd 24 bc 6d be 64 0b a5 3d f2 d7 8a 3e
       -0.031867232 -0.23216301 0.08058813 0.27117878
000260 49 5a 98 bd ba 48 6d 3d 96 ac 26 bd 0e a0 0b 3e
       -0.074390955 0.057930686 -0.040691935 0.13635275
000270 8a 68 dc bc ca 70 49 3e bc 2e b4 bd 7a 38 32 3d
       -0.026905317 0.19671932 -0.087979764 0.04351089
000280 93 bb 87 bd f6 ec 9b 3b 4d 02 11 bb fc db a8 bb
       -0.06627574 0.0047584726 -0.0022126616 -0.0051531773
000290 3e fa 5b bd 2f 0c 8d 3e 4e 92 b5 be e5 48 8a 3d
       -0.053705446 0.27548358 -0.35463184 0.06752185
0002a0 b5 dd 92 bc 1a a2 4c bd a8 84 c7 3b 74 9a ad bd
       -0.017927984 -0.04995928 0.006088812 -0.08476725
0002b0 7a 43 5e be 1f d1 07 3f 86 d9 60 3d 23 a8 a4 3c
       -0.21705428 0.5305347 0.054894947 0.020099705
0002c0 4b 55 3c 3f 84 98 85 bd 6b 12 9a bc 80 a9 ee 3a
       0.73567647 -0.06523231 -0.01880761 0.0018208474
0002d0 4b 3b da bd 50 ae 8c bb e0 3d 9c be f6 e4 5b bd
       -0.106558405 -0.0042932406 -0.30515957 -0.05368515
0002e0 70 b9 da bc 56 a7 2d bd 93 d6 ad 3d d6 c7 8f 3d
       -0.026699752 -0.042395912 0.084881924 0.070205376
0002f0 b2 eb bf bd 01 1c 40 3c c1 d4 34 3e a2 b4 24 bd
       -0.09371127 0.011725427 0.17659284 -0.040211327
000300 7b 9b 46 bd 58 4b 01 bc a6 72 36 3d 8f 97 39 3e
       -0.04848812 -0.0078914985 0.04454293 0.18124221
000310 88 c0 c1 bc 74 57 cf be c8 da 18 3c fe b5 b3 be
       -0.023651376 -0.4049641 0.009329505 -0.35099787
000320 b2 2e 38 bc 3c 87 ef 3d 4b 0c eb be b5 95 8c be
       -0.011241602 0.11695716 -0.45907816 -0.27457967
000330 11 f1 3e be eb 18 1f 3e 2b aa 53 3f 24 ee 8a bc
       -0.18646647 0.15536849 0.8268153 -0.016959257
000340 aa a1 20 bc 73 40 44 3d 28 a0 73 3e e4 53 ed bc
       -0.009804169 0.047913026 0.23791564 -0.028970666
000350 2b 5f 8e 3d 6c d3 88 3f 8a 14 d7 bd 72 a2 a4 bd
       0.069517456 1.0689521 -0.105019644 -0.080387965
000360 9e 01 51 bd 0b b2 ab 3c 35 40 9d bd 47 dd b3 bd
       -0.051026933 0.020958921 -0.07678262 -0.0878244
000370 23 e1 9a bc 17 ea 6b 3d dd 64 3a be e0 ee 01 3e
       -0.018906182 0.057596292 -0.18202539 0.1268878
000380 aa 6f 92 3d b0 13 58 be d7 14 f9 be 81 4e 68 bc
       0.071502045 -0.2110126 -0.48648712 -0.014178873
000390 9d fb 1f 3c e3 5f ad 3e 5a 98 6d bc 7d e8 4b be
       0.009764579 0.33862218 -0.0145016555 -0.19912906
0003a0 07 f7 18 bf 6f 32 92 3e cc e8 20 3e de b1 68 bd
       -0.59751934 0.28554103 0.15713805 -0.056810252
0003b0 87 a9 92 3e de 7e 2d bd bc 61 d1 3a fa c3 ae 3f
       0.28644964 -0.042357318 0.0015974562 1.3653557
0003c0 ed b4 2f bc e7 12 32 bd a1 5a 49 bb d9 11 c6 3d
       -0.010724288 -0.043475058 -0.0030724185 0.09671373
0003d0 64 89 2f bd f7 a9 27 3f d4 17 c4 be 21 e2 c3 be
       -0.042855635 0.6549372 -0.3829943 -0.3825846
0003e0 73 b9 1a bb 5c 75 ce 3b 27 e6 c1 3d c4 b8 74 be
       -0.0023609072 0.0063006114 0.09467726 -0.23898607
0003f0 d4 1c ae 3e eb 18 54 3c 74 6d 4e bc b8 db 10 bc
       0.3400637 0.012945394 -0.012599338 -0.0088414475

eval_net.net.4.bias f4 [4]
000000 0b 99 d0 3d 24 a7 86 bf 8f 72 80 3f 64 1b 92 3d
       0.10185441 -1.0519757 1.003496 0.071341306
